pytorch-examples/rnn-name-classification/data/parameters.pt (torch, 33954 bytes, 10 tensors)

gru.weight_ih_l0 f4 [60, 57]
-0.6607337 2.334177 -0.11217648 -1.1798619 1.1714984 1.9913203 0.88806796 -1.9186095
-1.1458507 -1.8302894 0.12785861 -0.42428955 1.0670125 1.7878212 -0.5009345 1.4820434
-1.7543141 0.33329734 0.8011793 0.642011 -0.617617 0.5981264 0.9381114 2.377535
-1.5222249 -0.60759366 -0.8179559 -0.65328974 0.092886135 -0.8832463 -0.09969408 0.048614033
-0.85070163 -0.9367576 0.8357098 -0.09679634 -0.35967505 0.31044853 -0.23947492 -0.7473225
0.116507895 0.114181034 -1.428029 -1.3339368 -0.86148626 0.18028942 -0.30309734 -0.2551315
-1.1527835 -0.3515446 -0.7041629 -0.4155924 1.2184621 -0.033787448 0.24524705 0.041280985
0.33463055 0.50726426 0.8925423 -0.24880084 0.44167316 -1.1849519 2.641232 -0.9337563
-0.84201187 -1.2261033 0.5564759 1.4506785 1.0493134 1.305931 -2.769762 -0.76330435
-2.4592571 -2.0360918 0.41750586 -0.50727457 -0.3734504 0.9648257 1.7559906 -1.5406693
-1.0641626 1.6791621 0.42883262 -1.0139009 -1.0849435 0.8682277 -0.14772029 -1.1138043
1.3293087 -1.3095037 -1.0663463 1.6351967 -0.066902995 2.083424 -1.2120992 -1.1426632
-0.9830954 0.19644228 2.2774327 1.4677655 0.017293349 0.9078259 -2.448937 0.3970655
0.16833103 0.080633104 0.09699278 0.38149697 -0.80784756 2.1811001 -0.009566547 0.28478628
0.04076154 1.9518639 -2.4049463 2.1053412 0.39380887 0.5902441 -2.1010149 -0.9725664
1.5862234 0.35434002 -0.13755895 0.356329 -1.1718727 0.93546 -0.726975 -0.29237986
-0.64339924 -1.8509032 0.31678078 2.644513 -1.0214562 0.5364339 1.2072623 -1.6608988
-1.1773499 1.1502445 1.7767705 1.6358094 0.8502532 -0.06538615 -0.79461783 -0.1366789
-0.48238692 0.40182936 0.7010678 -0.19421044 0.121905535 -0.25036326 0.8785569 -1.1042992
-0.1246794 -0.34697273 -0.4188436 -0.2568884 -0.2860747 -1.0271922 0.24442932 0.22589971
0.25285158 -1.6121429 0.59504026 0.6704478 -0.14074853 -0.97460604 -0.86543596 -0.100955844
-0.3734535 -0.11587478 -1.1665776 -0.8031793 -2.0358858 -3.2996776 -0.58588624 1.223409
-0.3717266 1.0474827 -0.2995708 0.8680168 1.1710967 -0.21137002 1.306408 -2.455179
-0.35892418 -2.244717 -0.13052142 0.2859829 0.53319705 -1.188307 -1.1096716 0.09754982
0.7556685 -1.3750925 -2.509524 0.2659924 2.5320961 -0.24706312 -1.0186886 -0.25359294
-0.39656687 -0.16246355 4.2914925 0.35307533 0.6027868 0.5971055 0.2252038 0.96288353
-0.49684238 -0.37531155 0.26105875 -0.47385028 1.0133582 -0.5212943 -2.1141927 -1.1647365
2.485975 0.28206137 0.114903755 1.6668043 0.48534372 0.5684219 -0.16593441 0.6658289
-0.0795247 -0.88564247 -0.1356749 0.4762189 0.4033856 1.9967566 -1.7770795 -0.30824685
-0.3350073 -2.1645608 0.73532337 -2.7615356 0.37704062 1.8866215 -4.1985555 -0.85846144
2.3219743 -0.9171737 -0.856453 -1.8980805 -0.4500806 -0.7693684 1.7323928 -1.2194197
0.14832777 -1.1491785 1.5210196 -2.163131 -0.13537389 -1.7043186 0.0016953188 -0.5772578
00000000: d825 29bf 2863 1540 c8bc e5bd b705 97bf
00000010: a9f3 953f 95e3 fe3f 6c58 633f ff94 f5bf
00000020: 3cab 92bf ec46 eabf 5eed 023e 7b3c d9be
00000030: de93 883f 53d7 e43f 3e3d 00bf 99b3 bd3f
00000040: 5d8d e0bf f3a5 aa3e 161a 4d3f d55a 243f
00000050: 261c 1ebf d01e 193f 1228 703f 8929 1840
00000060: 44d8 c2bf 428b 1bbf 8f65 51bf ff3d 27bf
00000070: 163b be3d 6e1c 62bf 692c ccbd 821f 473d
00000080: 95c7 59bf 59cf 6fbf 14f1 553f 293d c6bd
00000090: 5427 b8be 1cf3 9e3e ea38 75be 8750 3fbf
000000a0: b19b ee3d bfd7 e93d a7c9 b6bf 71be aabf
000000b0: 5d8a 5cbf ca9d 383e 932f 9bbe 99a0 82be
000000c0: 698e 93bf a7fd b3be 0544 34bf 87c8 d4be
000000d0: 91f6 9b3f b564 0abd 0b22 7b3e 4016 293d
000000e0: b254 ab3e 12dc 013f a77d 643f a6c5 7ebe
000000f0: fc22 e23e 81ac 97bf f209 2940 a70a 6fbf
00000100: 178e 57bf f4f0 9cbf 3475 0e3f d5af b93f
00000110: e74f 863f bf28 a73f c843 31c0 ea67 43bf
00000120: 7864 1dc0 544f 02c0 54c3 d53e bfdc 01bf
00000130: e434 bfbe d1fe 763f 4dc4 e03f a734 c5bf
00000140: 7b36 88bf c9ee d63f f38f db3e 81c7 81bf
00000150: 6edf 8abf 2c44 5e3f fd43 17be 2491 8ebf
00000160: ca26 aa3f d19d a7bf 097e 88bf 204e d13f
00000170: 7004 89bd d256 0540 1126 9bbf ca42 92bf
00000180: 24ac 7bbf 2a28 493e 75c1 1140 bddf bb3f
00000190: c8aa 8d3c 4767 683f 62bb 1cc0 2b4c cb3e
000001a0: f85e 2c3e f822 a53d 27a4 c63d 9253 c33e
000001b0: 19cf 4ebf 2597 0b40 02bd 1cbc 82cf 913e
000001c0: 93f5 263d add6 f93f a4ea 19c0 e9bd 0640
000001d0: 51a1 c93e 3d1a 173f 0777 06c0 1dfa 78bf
000001e0: 5e09 cb3f 0e6c b53e 41dc 0cbe c170 b63e
000001f0: edff 95bf 4e7a 6f3f 091b 3abf d0b2 95be
00000200: d0b5 24bf 65ea ecbf 1731 a23e b33f 2940
00000210: 14bf 82bf bb53 093f 9287 9a3f 5598 d4bf
00000220: 67b3 96bf 363b 933f 376d e33f 3462 d13f
00000230: 32aa 593f 2ce9 85bd 136c 4bbf 8ef5 0bbe
00000240: 6bfb f6be 94bc cd3e 2e79 333f 1adf 46be
00000250: 9ca9 f93d 9d2f 80be 1be9 603f ad59 8dbf
00000260: ea57 ffbd 69a6 b1be ab72 d6be e086 83be
00000270: 6278 92be 097b 83bf ae4b 7a3e 4152 673e
00000280: c375 813e b35a cebf 8f54 183f 78a2 2b3f
00000290: 6220 10be c87f 79bf 368d 5dbf f0c1 cebd
000002a0: 4c35 bfbe c24f edbd 6a52 95bf 299d 4dbf
000002b0: f44b 02c0 eb2d 53c0 a4fc 15bf ab98 9c3f
000002c0: f352 bebe ea13 863f 5861 99be 5936 5e3f
000002d0: 7fe6 953f 6271 58be 6138 a73f a721 1dc0
000002e0: e9c4 b7be 71a9 0fc0 68a7 05be 5a6c 923e
000002f0: 9a7f 083f 721a 98bf b809 8ebf 33c8 c73d
00000300: 7e73 413f 0803 b0bf 0b9c 20c0 2830 883e
00000310: dd0d 2240 1dfe 7cbe 6364 82bf efd6 81be
00000320: d00a cbbe d85c 26be e853 8940 4ac6 b43e
00000330: 3c50 1a3f e8db 183f d39b 663e 897f 763f
00000340: 2062 febe d628 c0be 7ea9 853e 819c f2be
00000350: b9b5 813f 8b73 05bf ef4e 07c0 1616 95bf
00000360: 371a 1f40 596a 903e a952 eb3d d859 d53f
00000370: f97e f83e 1984 113f b6ea 29be c373 2a3f
00000380: d9dd a2bd 77b9 62bf 5cee 0abe f7d2 f33e
00000390: 8f88 ce3e b895 ff3f 5777 e3bf 88d2 9dbe
000003a0: 1486 abbe 2a88 0ac0 273e 3c3f 00bd 30c0
000003b0: 780b c13e d07c f13f 915a 86c0 21c4 5bbf
000003c0: 3a9b 1440 e5cb 6abf 8140 5bbf 4df4 f2bf
000003d0: f770 e6be 54f5 44bf 0cbf dd3f f215 9cbf
000003e0: 3ce3 173e 4818 93bf c5b0 c23f bd70 0ac0
000003f0: 749f 0abe 1d27 dabf 7635 de3a 2bc7 13bf

gru.weight_hh_l0 f4 [60, 20]
0.23540106 1.1080825 -0.45219663 0.13805725 -1.2333294 -0.4505155 -1.1786389 0.80326563
0.44947907 1.3075393 -0.6909504 0.73257333 -0.15233459 -0.49796495 0.092773914 0.92900693
0.042512946 0.42482948 0.09620749 0.18618494 0.41581067 -0.1317582 -0.17388563 -0.35473064
-0.065006435 1.04252 -0.08210524 0.54374814 -0.87208736 -0.85740554 0.46255785 0.99958587
1.0044733 1.2029359 1.2852459 -0.60250586 -0.15335485 -0.4405234 1.3456335 0.70543927
-0.10718956 -1.2169943 0.007802305 1.4639904 0.40616712 0.13975222 -0.23307334 -0.19823678
-0.613203 -0.7521235 -0.35945973 0.5489228 -0.44818294 -0.6088537 0.20898944 0.9546813
0.15882902 -0.23697 0.34820548 0.23200557 0.74564666 0.6082276 -0.8760636 -1.154142
0.012443097 -0.17906393 0.37744257 0.31883457 -0.18128967 0.8583036 1.1837252 -0.32918358
0.8109596 -1.4211298 -0.012121794 -0.310846 -1.0349692 -0.28764868 -0.025722029 0.3137071
0.9203658 1.8709259 1.291752 0.32678133 0.554903 -0.5554416 0.50222075 -0.4431979
-0.6328525 0.8874329 -0.7138563 -0.14726876 -0.44025853 0.15398672 1.455951 0.25846532
0.27170244 -0.075941525 0.66745114 -0.13539454 -1.0495887 -1.6232555 -1.0553334 -0.86277556
0.20747031 0.5404015 -0.6436063 -0.0651099 1.866932 -0.30802664 -0.9505303 -0.23979247
0.12766299 0.8271144 0.30592126 0.5771291 0.8487202 0.96249264 -0.5923368 -0.474427
-0.46985763 1.313962 0.038608555 -0.6375142 0.1419141 -0.30432856 -0.8530936 0.4325379
0.64287615 1.1356287 0.5257171 0.69091135 1.327862 -0.07100015 -0.09978196 -0.13264087
0.65433186 0.36690027 0.06738467 -0.21312469 0.27298835 0.44656232 -0.6963192 -0.15380959
0.7936528 -0.025205636 0.77298814 -0.05075059 1.2132312 -0.13271858 0.31941333 -0.8116486
-0.392118 0.18523791 -0.098633505 0.35227403 0.19968037 -1.5231731 -0.2774597 -0.9670398
0.047485698 0.38419858 0.90373665 -0.01626319 0.72929657 0.3862491 -0.15488276 0.30062792
-0.034546945 0.64404744 -0.3437241 0.39832228 0.4810105 0.7120622 -0.78016233 0.6797552
0.29696748 -0.55450255 -0.18918934 -0.5364907 1.3226697 0.17749648 0.09891949 -0.087718576
0.9520724 0.5056329 0.4887218 -0.047050633 1.3319571 0.07349026 1.0113124 -0.12935075
-1.0828865 0.3549574 0.4061312 -0.92638594 0.9282698 -0.5713548 0.019823935 0.74570876
0.020083006 -0.4903884 -0.9036348 -0.093037285 -0.4113043 0.09729713 -0.13375908 -0.98792565
0.938778 0.08473278 1.0435939 -0.16745903 -0.14614701 -0.23965017 -0.42007342 0.9405775
-0.72922504 0.19701897 0.41105995 -0.31937882 -0.4559245 1.1551855 -0.24039672 -0.17493981
-0.13063483 -0.25180486 -0.6875712 0.31321517 0.41508907 -0.56373763 -0.34754518 -0.12883167
-0.97589886 0.60185266 -0.20755243 0.6900089 0.12704198 0.12663347 0.36065415 0.060808547
0.02551023 -1.0114644 -0.5778799 -0.69329005 -0.73986214 0.30538267 -0.027860012 0.62913287
-0.501551 0.25924358 0.9589937 0.044755213 0.072287954 0.11368528 0.37259609 0.17298797
00000000: fa0c 713e a6d5 8d3f 5186 e7be e15e 0d3e
00000010: bddd 9dbf f8a9 e6be a4dd 96bf d1a2 4d3f
00000020: 1f22 e63e 735d a73f 20e2 30bf ed89 3b3f
00000030: 99fd 1bbe 43f5 febe 4000 be3d 66d3 6d3f
00000040: 0e22 2e3d 4083 d93e 6f08 c53d 44a7 3e3e
00000050: 23e5 d43e 9feb 06be 130f 32be 419f b5be
00000060: 1822 85bd 4c71 853f cb26 a8bd 1433 0b3f
00000070: 1e41 5fbf ee7e 5bbf 62d4 ec3e dce4 7f3f
00000080: 9592 803f cef9 993f f082 a43f d33d 1abf
00000090: 0e09 1dbe 488c e1be b83d ac3f ab97 343f
000000a0: 3386 dbbd 78c6 9bbf 7aaa ff3b 0a64 bb3f
000000b0: 23f5 cf3e 351b 0f3e c7aa 6ebe 95fe 4abe
000000c0: dffa 1cbf 2a8b 40bf 1b0b b8be 3486 0c3f
000000d0: 3c78 e5be d6dd 1bbf 5401 563e fe65 743f
000000e0: 13a4 223e 44a8 72be fd47 b23e de92 6d3e
000000f0: b3e2 3e3f ceb4 1b3f b445 60bf edba 93bf
00000100: 22de 4b3c 895c 37be 2740 c13e 493e a33e
00000110: 00a4 39be c9b9 5b3f 4f84 973f c08a a8be
00000120: 0c9b 4f3f 95e7 b5bf 7d9a 46bc 3527 9fbe
00000130: df79 84bf b046 93be 01b7 d2bc 389e a03e
00000140: 189d 6b3f 807a ef3f 2158 a53f e24f a73e
00000150: 1f0e 0e3f 6c31 0ebf 8a91 003f d6ea e2be
00000160: 9f02 22bf cd2e 633f 49bf 36bf 9fcd 16be
00000170: 9169 e1be b2ae 1d3e 9a5c ba3f 9155 843e
00000180: 951c 8b3e 3b87 9bbd 14de 2a3f dea4 0abe
00000190: ec58 86bf d6c6 cfbf 2a15 87bf dcde 5cbf
000001a0: 1973 543e c157 0a3f 62c3 24bf 5758 85bd
000001b0: a1f7 ee3f abb5 9dbe f455 73bf 288c 75be
000001c0: 16ba 023e c5bd 533f b6a1 9c3e bcbe 133f
000001d0: ba45 593f eb65 763f 62a3 17bf 19e8 f2be
000001e0: 2e91 f0be e82f a83f 0124 1e3d 2134 23bf
000001f0: ee51 113e f4d0 9bbe 5864 5abf 9c75 dd3e
00000200: 8893 243f 485c 913f 6595 063f 91df 303f
00000210: 62f7 a93f 8768 91bd 7c5a ccbd 02d3 07be
00000220: 4b82 273f 5ada bb3e f900 8a3d 5c3d 5abe
00000230: 21c5 8b3e d1a3 e43e fa41 32bf 4380 1dbe
00000240: d42c 4b3f 0d7c cebc 8de2 453f dadf 4fbd
00000250: 294b 9b3f 61e7 07be 258a a33e 34c8 4fbf
00000260: b1c3 c8be 02af 3d3e 5d00 cabd 435d b43e
00000270: 0379 4c3e 56f7 c2bf 330f 8ebe ec8f 77bf
00000280: 5d80 423d adb5 c43e 495b 673f 623a 85bc
00000290: 2eb3 3a3f 71c2 c53e 9699 1ebe e7eb 993e
000002a0: 1981 0dbd 4be0 243f 9bfc afbe e6f0 cb3e
000002b0: 0247 f63e b549 363f b8b8 47bf 7004 2e3f
000002c0: 1f0c 983e e1f3 0dbf daba 41be 7457 09bf
000002d0: 3e4d a93f a3c1 353e 4d96 ca3d cca5 b3bd
000002e0: 04bb 733f 2871 013f be39 fa3e 2ab8 40bd
000002f0: 927d aa3f 1082 963d af72 813f 8674 04be
00000300: 069c 8abf fabc b53e 6ef0 cf3e a127 6dbf
00000310: 17a3 6d3f 4f44 12bf ce65 a23c c5e6 3e3f
00000320: 1e85 a43c 3014 fbbe 9c54 67bf 558a bebd
00000330: 7a96 d2be b843 c73d 24f8 08be b2e8 7cbf
00000340: c153 703f 6188 ad3d 7c94 853f 617a 2bbe
00000350: 90a7 15be db66 75be dd13 d7be b0c9 703f
00000360: 7eae 3abf 57bf 493e 7376 d23e 9f85 a3be
00000370: f06e e9be 1edd 933f 8f2a 76be 6c23 33be
00000380: 23c5 05be 91ec 80be ab04 30bf bd5d a03e
00000390: 8e86 d43e 1c51 10bf 71f1 b1be 73ec 03be
000003a0: 82d4 79bf 0413 1a3f a088 54be 6ca4 303f
000003b0: 4b17 023e 34ac 013e a9a7 b83e 6212 793d
000003c0: d4fa d03c aa77 81bf f0ef 13bf 757b 31bf
000003d0: 9b67 3dbf 1e5b 9c3e ae3a e4bc da0e 213f
000003e0: a565 00bf 93bb 843e 9c80 753f 3e51 373d
000003f0: b50b 943d d4d3 e83d eac4 be3e c223 313e

gru.bias_ih_l0 f4 [60]
-0.45201975 -0.09125964 -0.45889437 -0.30423734 -0.72499216 -0.2495405 -0.716443 -0.2009777
-0.460879 -0.26701176 -0.23109037 -0.6405465 -0.49065897 -0.77670085 -0.59909123 -0.41341355
-0.33041006 -0.5916678 -0.77319896 -0.1976965 -0.6580388 0.20527405 -0.73602426 0.13198163
-0.84733564 0.21809605 -0.6190234 -0.4030471 0.37308255 0.045191176 -0.95304954 -1.168091
0.15615962 -0.51428986 0.07532174 0.2804954 0.0016763655 0.27793115 -1.0019388 -0.54772615
0.12958695 -0.06868475 0.14202933 0.061112836 0.06189452 0.0024707657 0.100434706 0.0038567667
-0.10008778 0.06352838 -0.056290343 -0.2081171 -0.020547982 0.031341575 -0.16795939 0.15146317
0.044028148 0.12759593 -0.11274053 0.21279965
00000000: 226f e7be 56e6 babd 34f4 eabe ffc4 9bbe
00000010: 1699 39bf 8b87 7fbe cf68 37bf 19cd 4dbe
00000020: 55f8 ebbe c4b5 88be f4a2 6cbe dbfa 23bf
00000030: a737 fbbe ded5 46bf 0b5e 19bf f1aa d3be
00000040: 822b a9be 8a77 17bf 5ef0 45bf f470 4abe
00000050: 3b75 28bf 5c33 523e 166c 3cbf 3126 073e
00000060: fdea 58bf 9254 5f3e 5178 1ebf 315c cebe
00000070: ad04 bf3e 621a 393d 0efb 73bf 0284 95bf
00000080: 4fe8 1f3e 80a8 03bf 4942 9a3d 189d 8f3e
00000090: 7eb9 db3a fe4c 8e3e 883f 80bf c837 0cbf
000000a0: 71b2 043e 97aa 8cbd 2370 113e 7451 7a3d
000000b0: 1c85 7d3d 92ec 213b b6b0 cd3d cfc1 7c3b
000000c0: d2fa ccbd 2b1b 823d b490 66bd a61c 55be
000000d0: 3e54 a8bc 0660 003d 8cfd 2bbe 2919 1b3e
000000e0: dc56 343d 82a8 023e 82e4 e6bd 27e8 593e

gru.bias_hh_l0 f4 [60]
-0.34062517 -0.1082915 -0.44706127 -0.42857546 -0.91403943 -0.19988346 -0.6595843 -0.13997015
-0.34928906 -0.292841 -0.425929 -0.2897235 -0.2603503 -0.61942947 -0.43175372 -0.32901412
-0.34806618 -0.7868217 -0.796484 -0.08145325 -0.7405078 0.30922222 -0.44528696 0.2893178
-0.8793678 0.18377364 -0.71586585 -0.36572587 0.4516383 0.07427654 -0.9375915 -0.9883147
0.20744467 -0.3913995 0.277857 0.41805726 -0.19976585 0.26394346 -1.0118569 -0.5468395
-0.3414415 0.1964003 0.2376448 0.33377108 -0.20274092 0.19910346 -0.19940706 -0.32762977
0.2438284 -0.23609054 -0.28180984 0.037150376 -0.08930955 -0.06911889 -0.18199183 -0.11015549
-0.20633826 0.015233704 -0.12254278 -0.53322786
00000000: 6c66 aebe efc7 ddbd 37e5 e4be 3e6e dbbe
00000010: 7dfe 69bf 40ae 4cbe 84da 28bf 5654 0fbe
00000020: 04d6 b2be 41ef 95be 5e13 dabe a356 94be
00000030: a24c 85be ee92 1ebf d30e ddbe 8a74 a8be
00000040: bb35 b2be 266d 49bf 60e6 4bbf f6d0 a6bd
00000050: eb91 3dbf 6052 9e3e a7fc e3be 7621 943e
00000060: 401e 61bf 282f 3c3e fc42 37bf 6c40 bbbe
00000070: 233d e73e 4c1e 983d ff05 70bf 3102 7dbf
00000080: 606c 543e 8465 c8be 4643 8e3e 9a0b d63e
00000090: 6b8f 4cbe 9923 873e 8784 81bf acfd 0bbf
000000a0: 6cd1 aebe 291d 493e 2959 733e 0be4 aa3e
000000b0: 519b 4fbe c7e1 4b3e 5d31 4cbe 17bf a7be
000000c0: 27ae 793e b8c1 71be 6149 90be fe2a 183d
000000d0: ede7 b6bd 348e 8dbd 115c 3abe 3499 e1bd
000000e0: 564a 53be c996 793c b6f7 fabd 9f81 08bf

gru.weight_ih_l1 f4 [60, 20]
-0.5567311 0.58600336 -1.4707162 -0.4678449 -0.038807366 -0.038756497 -0.35895517 0.9944502
-0.7397812 -0.16547622 -1.1065385 0.20793003 -0.26802734 -0.3413897 0.13338757 -0.35135278
-0.7026341 0.25822204 0.36184013 -0.62582934 -0.38688597 0.027542874 0.05890995 -0.46240428
0.8815906 -0.880726 1.7831274 -0.9820341 -0.20503187 2.1173956 0.35130078 -0.75768477
0.66112405 -0.07934218 -0.576761 0.028874915 -1.99479 -0.31586367 -0.95117086 -0.6472369
-1.2750903 1.5980326 -1.8450458 -0.41208807 0.68830097 -0.15138386 1.2321202 0.16707629
0.41227335 1.8227369 -0.6807407 -0.12281404 1.0130814 0.82731014 0.920353 -0.8673186
-0.49327576 1.1290727 0.68915886 -1.669702 -0.12650672 0.80072945 0.29197243 0.8406103
1.9156647 -1.1233206 -0.34482074 -0.056232817 0.9133974 -1.3945404 -0.6271049 -1.3782437
-1.8026787 0.5836553 0.51081574 -0.9147429 1.6729815 -1.6508609 0.94550854 -0.10466071
0.91253585 -0.18645683 0.64889693 -0.04293075 0.77543414 -0.20791781 2.0478854 -0.8581024
1.0135583 -0.33107975 -0.59648013 0.02631798 -1.6659746 0.38267285 1.3904155 0.40136766
-0.43331662 -1.8315789 -0.18129773 -1.0664575 0.7582597 0.62345284 -1.5711186 0.92045885
-0.78326213 -0.45483506 2.257084 -0.11588382 1.966452 1.2641225 2.2311134 1.1879147
-0.13395867 0.6129646 0.23190942 -0.1961185 0.5390368 -1.4117303 -0.4695827 -0.5243427
-0.09682858 -0.7783182 -0.33315706 0.11058004 -1.4030974 -0.27275783 0.21291144 0.04722451
-1.0091906 2.2756984 1.8712852 0.34704804 0.28710112 -0.6648611 -0.46443132 -0.55756444
-0.25152475 -0.9607405 -1.4232646 -1.8036375 0.60634816 0.6416861 -0.90873903 -0.25999182
0.30007824 -0.20531122 -1.3527049 0.3150628 -0.3428056 0.28215247 0.7497313 -0.15654264
0.30257043 -0.18865368 1.494393 0.038251895 -0.78554577 -0.35932788 0.5373177 -0.1752396
-0.5681352 -0.32285318 0.1076281 -0.6521286 -0.09843704 -1.0655928 0.30788875 -0.077529676
0.89202654 0.9305409 1.0929805 -0.5660077 0.03814703 1.2419944 -0.20171782 -1.935826
0.28728554 0.95549655 0.06800634 0.055154398 -1.2076458 -1.0742096 -0.3532709 0.51586777
-1.3210211 -1.0035571 0.3840289 0.3742311 -1.737614 -2.2717245 1.340331 -1.3816875
1.2349691 -0.9474404 -0.059077673 -0.5916117 0.667651 0.3814891 1.2761949 -0.098352574
-1.8694453 1.055172 0.68685913 1.6546968 0.8354935 -1.2984848 2.0649273 2.0439577
-0.28550524 0.9590286 -0.4452599 -0.88864696 0.8302287 -0.7897035 -0.5296958 -2.315772
0.09323615 1.6701728 1.3941034 -0.6719098 -1.0798097 -1.1559792 0.407104 -0.1560075
-1.022404 1.2510542 -0.23547986 -0.41170254 -1.2039753 0.09383947 0.36701065 -0.7371132
-0.5940079 -1.1878191 -0.09922113 -0.21666448 -0.1307584 -0.017505787 0.06235514 -1.2940149
-0.56139046 -2.2959867 1.2515794 0.32121015 -0.14501978 0.52475363 -0.4024203 -1.1718605
0.889152 -0.22834459 2.3379312 0.0008105412 0.4530754 -0.9070789 -0.76878273 0.023900146
00000000: ee85 0ebf 5104 163f 6e40 bcbf 5e89 efbe
00000010: 79f4 1ebd 22bf 1ebd f9c8 b7be 4a94 7e3f
00000020: 4d62 3dbf 9972 29be 0ea3 8dbf 9ceb 543e
00000030: e13a 89be a1ca aebe c096 083e 83e4 b3be
00000040: d4df 33bf ae35 843e 1c43 b93e 5a36 20bf
00000050: eb15 c6be 98a1 e13c 8f4b 713d 41c0 ecbe
00000060: ecaf 613f 4277 61bf 853d e43f 9666 7bbf
00000070: e0f3 51be 6983 0740 b2dd b33e a1f7 41bf
00000080: 6d3f 293f 277e a2bd 9ca6 13bf 168b ec3c
00000090: 4755 ffbf e2b8 a1be ef7f 73bf 51b1 25bf
000000a0: 2936 a3bf 558c cc3f 762a ecbf 35fd d2be
000000b0: 7e34 303f 5f04 1bbe 1db6 9d3f 0c16 2b3e
000000c0: 7e15 d33e 714f e93f 0645 2ebf ed85 fbbd
000000d0: a7ac 813f 99ca 533f 419c 6b3f 9708 5ebf
000000e0: a48e fcbe 7485 903f b76c 303f ccb8 d5bf
000000f0: fa8a 01be 9bfc 4c3f 697d 953e 3d32 573f
00000100: 8034 f53f f8c8 8fbf 588c b0be 6254 66bd
00000110: 69d4 693f 4d80 b2bf f289 20bf 4a6a b0bf
00000120: 2dbe e6bf 6f6a 153f d2c4 023f 972c 6abf
00000130: 4224 d63f 694f d3bf d90c 723f 5b58 d6bd
00000140: f39b 693f 8aee 3ebe 1c1e 263f 27d8 2fbd
00000150: da82 463f 68e8 54be 8e10 0340 99ac 5bbf
00000160: 47bc 813f 4983 a9be ecb2 18bf ce98 d73c
00000170: a83e d5bf b2ed c33e 23f9 b13f 1080 cd3e
00000180: addb ddbe 2d71 eabf 1da6 39be ae81 88bf
00000190: 4f1d 423f 9b9a 1f3f 6a1a c9bf 31a3 6b3f
000001a0: de83 48bf 24e0 e8be 1074 1040 7f54 edbd
000001b0: b3b4 fb3f c4ce a13f 90ca 0e40 970d 983f
000001c0: 762c 09be 3feb 1c3f aa79 6d3e 4ad3 48be
000001d0: 51fe 093f 94b3 b4bf 256d f0be 533b 06bf
000001e0: 104e c6bd dd3f 47bf 9093 aabe ca77 e23d
000001f0: b298 b3bf eaa6 8bbe 7505 5a3e 7d6e 413d
00000200: 282d 81bf 0ba5 1140 4686 ef3f 48b0 b13e
00000210: ebfe 923e 5634 2abf f1c9 edbe 8bbc 0ebf
00000220: dac7 80be 17f3 75bf 892d b6bf 98dd e6bf
00000230: a239 1b3f 8a45 243f 1fa3 68bf a61d 85be
00000240: dba3 993e 1b3d 52be 6f25 adbf e94f a13e
00000250: 3784 afbe 4a76 903e 64ee 3f3f b74c 20be
00000260: 83ea 9a3e 6e2e 41be 4548 bf3f 05ae 1c3d
00000270: 8719 49bf d3f9 b7be a78d 093f 0272 33be
00000280: 4f71 11bf 034d a5be 1f6c dc3d e6f1 26bf
00000290: 5c99 c9bd 5865 88bf 98a3 9d3e e1c7 9ebd
000002a0: da5b 643f ee37 6e3f c9e6 8b3f e1e5 10bf
000002b0: 0f40 1c3d acf9 9e3f 1e8f 4ebe 25c9 f7bf
000002c0: 1717 933e 6c9b 743f e846 8b3d 94e9 613d
000002d0: 2394 9abf b37f 89bf ecdf b4be e90f 043f
000002e0: 3817 a9bf 8f74 80bf 709f c43e 389b bf3e
000002f0: 236a debf ef63 11c0 f78f ab3f 23db b0bf
00000300: 7813 9e3f 748b 72bf 6efb 71bd dd73 17bf
00000310: 2deb 2a3f 8a52 c33e 5b5a a33f 136d c9bd
00000320: fc49 efbf e00f 873f 00d6 2f3f 1bcd d33f
00000330: e7e2 553f c034 a6bf c527 0440 34d0 0240
00000340: be2d 92be e682 753f 1bf9 e3be 5e7e 63bf
00000350: de89 543f 022a 4abf 259a 07bf 9c35 14c0
00000360: 98f2 be3d 39c8 d53f fb71 b23f 4802 2cbf
00000370: 3437 8abf 20f7 93bf ef6f d03e 6ec0 1fbe
00000380: 22de 82bf 8b22 a03f a221 71be adca d2be
00000390: dd1b 9abf e82e c03d d2e8 bb3e 73b3 3cbf
000003a0: e710 18bf 750a 98bf 7334 cbbd 4bdd 5dbe
000003b0: 88e5 05be 4c68 8fbc 1a68 7f3d 48a2 a5bf
000003c0: 49b7 0fbf 72f1 12c0 c133 a03f a875 a43e
000003d0: 1180 14be 4156 063f 090a cebe 86ff 95bf
000003e0: 779f 633f 2ad3 69be aaa0 1540 807a 543a
000003f0: 80f9 e73e 5336 68bf f2ce 44bf 3dca c33c

gru.weight_hh_l1 f4 [60, 20]
0.17342633 -0.24305058 -0.12478276 -0.5109043 0.7721326 -0.18007281 0.43900785 -0.44012335
-0.101161756 -0.40482572 -0.071730465 -0.6757545 0.14174408 0.73098916 0.13115948 -0.62593025
-1.0408376 -0.027622279 -0.6998135 0.47853503 -0.3586176 2.1999412 0.39769948 -0.27676734
-0.9359586 0.94156635 0.9955567 -0.3179955 -0.16800635 -0.13179807 1.3157154 0.18349355
0.646141 -0.5115437 1.0288991 1.012201 -0.48916334 -0.008683162 -0.04589955 0.20136221
0.6319345 0.12997772 -0.3348268 -0.33315867 -1.5056932 -1.2200967 1.3927202 0.35886824
-0.45861948 0.25949875 0.10123123 -0.19265439 -0.45363382 -0.44175464 0.9866302 0.64438856
-1.7609674 -0.41492328 0.093436405 -0.23227148 0.0347278 -1.0480406 -0.47661102 -0.44835177
0.013967633 -0.21555266 -1.4274127 0.8488255 -1.3743716 -0.3718709 -1.406431 0.1591706
-0.38483495 -0.19318274 -1.1019815 0.42759728 0.08399493 2.5700877 0.08938998 0.21400492
-0.38305414 -1.2486343 -0.7644328 0.51319975 0.9960007 -0.040516227 0.5471141 -0.2246349
0.11685922 0.1626003 1.0280366 -0.25612292 -0.006732614 -0.37892288 -1.0148255 0.5324571
-0.31406695 0.50818586 0.11281484 -0.47502348 -0.614767 -0.53385526 -0.15237392 0.040295005
0.4027323 0.21466218 0.45346028 0.28942356 0.30339733 -0.4368672 0.3465882 -0.14988679
-0.5153224 -0.7198427 0.31871334 0.2172206 1.75217 -0.49471772 0.051070362 0.45753464
0.86242765 -0.020242782 -0.03863287 0.59577745 -0.013418618 0.09521702 0.91520405 -0.25566557
-0.3878818 0.2344871 -0.364442 -0.08729345 0.25781205 0.058510575 0.570223 -0.016770978
-1.5542499 0.50198305 -0.2862314 0.046968803 0.16460246 -0.15602082 -0.05570883 0.7653382
-0.50907093 -0.9726774 1.0784045 0.861439 -0.33520377 -0.63086635 -0.34642673 0.113503575
0.8200804 -0.21732087 -1.1280183 0.09452057 0.8855173 -0.020087587 0.1679872 0.34098822
-0.5101785 -0.49912733 -1.9775712 -0.29699096 0.14472069 -0.34100345 -0.5235993 -0.7321042
0.01675823 -0.35860333 -0.48130435 -2.0824082 -0.85474014 1.346724 0.6634727 -0.97653115
-1.3413615 0.6911356 -1.1737266 0.4218356 0.6954116 -0.14145304 0.17580414 -0.743589
-0.8132204 -0.20846659 -0.61180776 0.1395724 -0.25668508 0.25420552 1.1552988 0.0055102254
-0.52949744 -1.338705 -0.5025213 -1.0810707 -0.33811265 -0.7332862 0.115146756 0.15446836
-1.5736803 -0.5365193 -0.42893505 -1.3546877 -0.5485476 1.096782 0.057632793 -0.24842232
1.7429388 0.30582538 -1.7624893 -1.8135718 -0.0067434586 0.145219 0.06256552 0.16196035
-0.09502778 -0.11004919 -1.0542779 -0.5295858 -0.036108498 0.38963103 -0.20055933 0.022058865
0.6553874 -0.90500504 -0.45169547 1.5575422 0.25402436 -0.22692952 0.54953086 -0.33806682
1.0940138 -0.6209527 -1.35514 -2.1813803 1.4090078 0.9802231 0.55614674 -0.007030342
-0.035387818 -0.054120228 1.6145205 0.10692754 -0.19598901 0.03955449 1.7670816 0.24952766
1.490692 -0.24822469 -0.48265657 0.09359521 -0.76092637 0.9378981 0.768524 -0.8973805
00000000: ac96 313e 40e2 78be 1b8e ffbd a0ca 02bf
00000010: 7baa 453f 0265 38be a3c5 e03e d957 e1be
00000020: e52d cfbd 5145 cfbe 6ce7 92bd 3ffe 2cbf
00000030: 5c25 113e 1b22 3b3f ac4e 063e f73c 20bf
00000040: 2b3a 85bf 1e48 e2bc fa26 33bf 8b02 f53e
00000050: ba9c b7be d6cb 0c40 449f cb3e 73b4 8dbe
00000060: fc9a 6fbf 7e0a 713f cedc 7e3f 4ed0 a2be
00000070: db09 2cbe 13f6 06be 5d69 a83f bce5 3b3e
00000080: 7f69 253f 87f4 02bf f7b2 833f cd8f 813f
00000090: 9e73 fabe d243 0ebc 2b01 3cbd e531 4e3e
000000a0: 76c6 213f e118 053e 6b6e abbe c693 aabe
000000b0: 8eba c0bf 212c 9cbf a844 b23f 94bd b73e
000000c0: 2cd0 eabe 05dd 843e 5252 cf3d 3147 45be
000000d0: b142 e8be aa2d e2be cc93 7c3f a6f6 243f
000000e0: 6167 e1bf d370 d4be 965b bf3d 93d8 6dbe
000000f0: bd3e 0e3d 3226 86bf 5c06 f4be 5d8e e5be
00000100: 80d8 643c d6b9 5cbe 76b5 b6bf a14c 593f
00000110: 69eb afbf dd65 bebe ee05 b4bf 9efd 223e
00000120: 1609 c5be b2d1 45be bb0d 8dbf 08ee da3e
00000130: 8905 ac3d 517c 2440 1812 b73d 1b24 5b3e
00000140: ac1f c4be 40d3 9fbf deb1 43bf 0f61 033f
00000150: e7f9 7e3f 58f4 25bd ab0f 0c3f b106 66be
00000160: e353 ef3d b180 263e b496 833f 8b22 83be
00000170: 429d dcbb 2e02 c2be cde5 81bf 1c4f 083f
00000180: 62cd a0be 7818 023f 780b e73d 4736 f3be
00000190: 5f61 1dbf bdaa 08bf e907 1cbe 600c 253d
000001a0: ee32 ce3e 67d0 5b3e f22b e83e 532f 943e
000001b0: e556 9b3e 0fad dfbe 0274 b13e ec7b 19be
000001c0: 2bec 03bf 9c47 38bf 652e a33e 146f 5e3e
000001d0: 1b47 e03f a44b fdbe 282f 513d fb41 ea3e
000001e0: 0fc8 5c3f 31d4 a5bc 803d 1ebd df84 183f
000001f0: c3d9 5bbc 2401 c33d d04a 6a3f 99e6 82be
00000200: 7198 c6be 631d 703e 2498 babe e9c6 b2bd
00000210: f1ff 833e c9a8 6f3d 22fa 113f 4a63 89bc
00000220: a9f1 c6bf f681 003f ec8c 92be 5c62 403d
00000230: 8c8d 283e ecc3 1fbe f12e 64bd 34ed 433f
00000240: 7952 02bf 6301 79bf 2909 8a3f 4487 5c3f
00000250: d49f abbe 7580 21bf d85e b1be 9074 e83d
00000260: caf0 513f 5d89 5ebe e762 90bf 0094 c13d
00000270: 43b1 623f b98e a4bc d604 2c3e 0296 ae3e
00000280: 0f9b 02bf 9e8d ffbe 0e21 fdbf 330f 98be
00000290: a931 143e 0198 aebe 9b0a 06bf 2e6b 3bbf
000002a0: 8e48 893c db9a b7be 866d f6be 2d46 05c0
000002b0: 40d0 5abf 7461 ac3f 59d9 293f f2fd 79bf
000002c0: bcb1 abbf 43ee 303f ac3c 96bf d6fa d73e
000002d0: 7f06 323f 11d9 10be 0006 343e d95b 3ebf
000002e0: 362f 50bf 4478 55be 6f9f 1cbf 11ec 0e3e
000002f0: 3a6c 83be 3a27 823e d5e0 933f 1f8f b43b
00000300: 258d 07bf af5a abbf 3ca5 00bf 8660 8abf
00000310: 1a1d adbe a5b8 3bbf 10d2 eb3d f42c 1e3e
00000320: 5b6e c9bf 5459 09bf 609d dbbe 6866 adbf
00000330: 9e6d 0cbf 5a63 8c3f 5d10 6c3d 6c62 7ebe
00000340: 9e18 df3f 2595 9c3e 4099 e1bf 1f23 e8bf
00000350: 3bf8 dcbb 4ab4 143e 5a22 803d efd8 253e
00000360: ed9d c2bd 7861 e1bd 94f2 86bf ef92 07bf
00000370: 81e6 13bd b87d c73e 6d5f 4dbe cbb4 b43c
00000380: 78c7 273f 69ae 67bf a144 e7be 8b5d c73f
00000390: 7b0f 823e 3660 68be 0eae 0c3f 1817 adbe
000003a0: a508 8c3f c2f6 1ebf 3a75 adbf bc9b 0bc0
000003b0: 5e5a b43f e7ef 7a3f a25f 0e3f c85e e6bb
000003c0: d1f2 10bd 2cad 5dbd 9ca8 ce3f d3fc da3d
000003d0: 58b1 48be e403 223d bb2f e23f 2e84 7f3e
000003e0: ffce be3f 9d2e 7ebe c31e f7be d8ae bf3d
000003f0: 12cc 42bf 171a 703f fdbd 443f baba 65bf

gru.bias_ih_l1 f4 [60]
0.38305914 0.09682753 -0.39676052 -0.2516431 -0.13122103 0.34827957 0.093237124 -0.38579315
0.1859438 -0.088677846 -0.48895296 0.78324205 0.20489931 0.4826595 -0.19136395 -0.2357839
-0.4014345 -0.28756484 0.75677216 0.21027358 -0.56769186 0.006328248 0.38104495 -0.051480375
-0.8141152 -0.18136147 -0.45546716 -1.3289474 -0.26019308 -0.24827376 0.24818997 0.04893788
-0.6585269 -0.34873378 -0.9346255 -0.40522417 -2.0546083 -0.021516245 -0.25207213 0.3127179
-0.2651033 -0.10420347 0.21218552 -0.44627374 -0.364843 0.0972404 -0.05637378 0.5778517
-0.28433496 -0.26159045 0.14556248 -0.25713727 0.05450795 0.21808288 0.081470184 -0.58912313
-0.44373018 0.5926412 -0.01896292 -0.3538578
00000000: 5420 c43e 834d c63d 3224 cbbe 5dd7 80be
00000010: ce5e 06be b351 b23e 1bf3 be3d ae86 c5be
00000020: 0d68 3e3e bb9c b5bd 0b58 fabe 8d82 483f
00000030: 20d1 513e 251f f73e e9f4 43be 5671 71be
00000040: d388 cdbe b33b 93be d2bb 413f f551 573e
00000050: 4154 11bf 315d cf3b 5318 c33e 16dd 52bd
00000060: db69 50bf d2b6 39be fe32 e9be f31a aabf
00000070: 0738 85be 7a3b 7ebe 8325 7e3e 1673 483d
00000080: 3895 28bf 3c8d b2be 9e43 6fbf 8b79 cfbe
00000090: b47e 03c0 d642 b0bc 990f 81be 901c a03e
000000a0: 9fbb 87be a168 d5bd 2947 593e fe7d e4be
000000b0: b4cc babe fa25 c73d 31e8 66bd 17ee 133f
000000c0: 5a94 91be 2fef 85be 550e 153e 7fa7 83be
000000d0: ba43 5f3d 1e51 5f3e d7d9 a63d c6d0 16bf
000000e0: 9a30 e3be 55b7 173f 2058 9bbc d92c b5be

gru.bias_hh_l1 f4 [60]
0.5040636 0.1331029 -0.41503105 -0.31102931 0.002252108 0.38275498 -0.0030310724 -0.65011233
-0.02378371 -0.17749256 -0.41175485 0.73544794 -0.19797222 0.19909774 0.19769576 0.07096704
-0.54589003 -0.1820312 0.50726444 0.38390654 -0.5704073 0.24031122 0.4758977 0.010639624
-0.8590637 -0.47168395 -0.5619224 -1.2952242 -0.23830876 -0.342867 -0.121425144 0.3196835
-0.41462633 -0.44274837 -0.7596313 -0.41204813 -2.1759422 0.16446573 -0.39974254 0.42024338
-0.46229193 0.27252585 0.045137856 0.35053617 -0.44256344 0.34768465 0.99502105 -0.022017414
0.15445879 -0.1691286 -0.029312668 -0.41313037 -0.061786246 0.25401887 0.09819615 -0.85716796
0.40230623 0.059269227 -0.16146389 -0.43586814
00000000: 500a 013f 204c 083e f37e d4be 3c3f 9fbe
00000010: 1a98 133b 76f8 c33e f5a4 46bb c36d 26bf
00000020: 0ed6 c2bc 9cc0 35be 88d1 d2be 5146 3c3f
00000030: 3bb9 4abe 47e0 4b3e c270 4a3e 2b57 913d
00000040: 73bf 0bbf 6366 3abe 15dc 013f 668f c43e
00000050: 3606 12bf 2514 763e dda8 f33e d151 2e3c
00000060: 99eb 5bbf 8f80 f1be 25da 0fbf e8c9 a5bf
00000070: 3607 74be 438c afbe bfad f8bd 8ead a33e
00000080: e749 d4be eaaf e2be 3277 42bf f9f7 d2be
00000090: a342 0bc0 b469 283e 0eab ccbe 242a d73e
000000a0: 87b1 ecbe 8288 8b3e 79e2 383d 7a79 b33e
000000b0: ad97 e2be b903 b23e b3b9 7e3f dd5d b4bc
000000c0: 722a 1e3e 0c30 2dbe 1f21 f0bc d385 d3be
000000d0: 9313 7dbd c30e 823e 101b c93d 5c6f 5bbf
000000e0: 15fb cd3e 4ac4 723d ca56 25be 1c2a dfbe

toclass.weight f4 [18, 20]
-1.3750721 0.27417272 -0.66422105 1.4463685 0.022197274 0.5002314 -0.32475084 1.5476234
-0.3017527 -1.8474423 -0.7509784 0.7627361 0.047305997 -0.21181889 -0.38119632 -0.4826041
-1.4849837 -0.4941102 0.12428189 1.1455573 -0.014064077 0.27979404 -0.65095097 0.021462463
-0.51649255 -0.71165055 1.1237476 0.6085231 -1.9308586 -0.7202763 -0.843187 -0.087642476
1.639516 -1.1237558 -0.8982865 -0.5423353 0.43473798 2.0906832 0.9365173 -0.6464297
-0.9988199 -0.5759146 -1.4108981 0.24730012 1.8072879 -0.88231707 1.0235255 0.15803018
0.37617046 -0.10479485 -0.699369 1.0937167 -0.9377632 -0.9542878 0.43832743 -0.23908693
-1.2233531 1.970162 -0.5090654 0.4531863 -0.11266003 0.62011564 0.9169508 0.19854732
-1.5448884 0.55854475 -0.07495322 -1.2935187 -0.13639937 -0.9483325 -0.97601944 0.04129481
0.35513926 -0.1011675 0.28310472 0.86912584 -0.32182348 0.49398383 0.27803 -0.23902397
0.16949996 -0.025544489 0.62407684 -0.20032595 -1.2590617 -2.1853013 -0.72901064 0.5298511
-0.6237322 -2.390371 0.22221643 0.49091884 1.5502601 -0.6770921 -1.682064 -0.50250226
0.50428444 1.429602 0.24702497 0.8557499 1.8079499 0.6790601 0.8488165 1.1832775
1.0801224 0.23627399 0.6404922 0.7390648 0.42638314 0.71931106 1.9773816 -0.9911349
-0.52256215 0.7383171 0.1348018 -1.1926482 -0.5352504 -0.60310906 -1.0707746 -1.2116328
-0.5385121 0.25859126 -0.3442319 -1.2824278 0.3949588 -0.28533727 0.905972 1.2969595
-0.2540253 0.72847825 -0.22549869 -0.41333967 -0.7523008 0.93375105 0.107285365 -0.053400986
-1.2278045 2.182232 1.5848316 0.17002505 -0.5510617 -0.44083998 0.71168685 -0.22255485
0.5164809 1.5679592 -0.031146502 1.1114084 0.26195413 -1.2447075 -0.28612554 0.1924656
-0.21440314 0.9582193 0.9410294 -1.2087611 -0.16288315 -0.9760419 0.3319991 0.8725168
0.32792297 -2.3868475 -0.26791978 1.1613823 -0.4142801 -0.24745947 -0.69108707 1.0427722
0.21872282 0.7120436 -2.3222995 -0.046371527 -0.65201396 -1.2668188 -0.95524067 -1.5875437
2.2218199 -0.8547784 -0.29172492 -0.2923448 -0.042945497 -1.4239414 -1.5925062 -0.6889028
-2.15262 0.8126161 -3.3947058 -1.9362288 0.3408163 0.5425741 1.9288704 0.6287822
3.0777714 -0.63819104 -2.6210442 1.3708066 -0.24143817 -0.384802 0.6143664 0.3142054
-0.6175561 0.010606369 -0.61460024 -0.27266705 1.7917308 -0.48863322 -1.6773707 -0.30477667
0.049204953 -1.0097821 0.1162728 -0.013137243 -0.11174791 -0.44039866 0.76706475 1.9208767
1.0483483 0.34567174 0.58319837 0.6189815 -0.03490139 0.49593264 0.33617333 -0.80707246
0.48322448 0.3579034 1.3228103 -1.5881261 -0.9519028 1.3996425 0.7787402 0.5217917
-0.014542952 0.14456499 0.7953979 1.1633288 0.113512054 0.119097374 -0.22805503 0.41258034
-0.9975565 -0.5209166 -0.14817233 1.0895214 -1.0048581 -0.45089328 0.86205775 1.2540456
0.28322923 0.23258498 0.6225778 0.61959404 0.22691227 -0.4638616 1.1694992 2.1539633
00000000: 5d02 b0bf 5e60 8c3e 640a 2abf 9a22 b93f
00000010: 0fd7 b53c 2a0f 003f be45 a6be 8618 c63f
00000020: 547f 9abe fd78 ecbf 1f40 40bf ac42 433f
00000030: efc3 413d 0de7 58be 2a2c c3be e217 f7be
00000040: f213 bebf 03fc fcbe 8187 fe3d 9fa1 923f
00000050: 046d 66bc 2a41 8f3e b9a4 26bf 0cd2 af3c
00000060: db38 04bf bb2e 36bf f6d6 8f3f 2bc8 1b3f
00000070: 6026 f7bf 0764 38bf 1adb 57bf e67d b3bd
00000080: a9db d13f 3bd7 8fbf 1bf6 65bf 7cd6 0abf
00000090: fa95 de3e c1cd 0540 99bf 6f3f 6b7c 25bf
000000a0: a9b2 7fbf 246f 13bf 4f98 b4bf 3e3c 7d3e
000000b0: 3655 e73f 88df 61bf e202 833f aad2 213e
000000c0: 6a99 c03e af9e d6bd d909 33bf e9fe 8b3f
000000d0: 4011 70bf 354c 74bf 746c e03e 34d3 74be
000000e0: d696 9cbf 452e fc3f 1c52 02bf 0908 e83e
000000f0: 4dba e6bd e6bf 1e3f 4abd 6a3f fd4f 4b3e
00000100: e7be c5bf cafc 0e3f 1381 99bd 0592 a5bf
00000110: 47ac 0bbe ebc5 72bf 69dc 79bf bf24 293d
00000120: d0d4 b53e e830 cfbd 1af3 903e 087f 5e3f
00000130: 0cc6 a4be 73eb fc3e f359 8e3e b3c2 74be
00000140: 6691 2d3e ad42 d1bc 80c3 1f3f 3f22 4dbe
00000150: ef28 a1bf fadb 0bc0 71a0 3abf 52a4 073f
00000160: eaac 1fbf d7fb 18c0 b48c 633e b759 fb3e
00000170: ec6e c63f e855 2dbf e04d d7bf fda3 00bf
00000180: c918 013f 33fd b63f 1df4 7c3e 6d12 5b3f
00000190: e76a e73f e2d6 2d3f 0a4c 593f a375 973f
000001a0: 7341 8a3f cff1 713e 4cf7 233f 5a33 3d3f
000001b0: e44e da3e c524 383f d71a fd3f 04bb 7dbf
000001c0: a2c6 05bf 5902 3d3f 7c09 0a3e b2a8 98bf
000001d0: 2c06 09bf 5b65 1abf 240f 89bf c916 9bbf
000001e0: eedb 09bf 1366 843e 2a3f b0be 9826 a4bf
000001f0: 0a38 ca3e ba17 92be c8ed 673f c502 a63f
00000200: 9b0f 82be 8d7d 3a3f 21e9 66be 42a1 d3be
00000210: c996 40bf 4f0a 6f3f 6eb8 db3d feba 5abd
00000220: b328 9dbf b0a9 0b40 c3db ca3f 0c1b 2e3e
00000230: 6112 0dbf c7b5 e1be 1c31 363f 6be5 63be
00000240: 1838 043f e3b2 c83f f326 ffbc a142 8e3f
00000250: da1e 863e 9352 9fbf 0c7f 92be b415 453e
00000260: 7f8c 5bbe dc4d 753f 4ee7 703f afb8 9abf
00000270: d7ca 26be e2dd 79bf c9fb a93e 435d 5f3f
00000280: 85e5 a73e 1cc2 18c0 c82c 89be 2da8 943f
00000290: 851c d4be 0466 7dbe 15eb 30bf 8f79 853f
000002a0: e0f8 5f3e 7d48 363f 8ea0 14c0 12f0 3dbd
000002b0: 63ea 26bf 1e27 a2bf a78a 74bf a234 cbbf
000002c0: 4c32 0e40 c2d2 5abf f85c 95be 38ae 95be
000002d0: 9ee7 2fbd b643 b6bf 3ed7 cbbf ef5b 30bf
000002e0: 87c4 09c0 9c07 503f dc42 59c0 58d6 f7bf
000002f0: 797f ae3e 23e6 0a3f 3ae5 f63f dff7 203f
00000300: 35fa 4440 7d60 23bf 30bf 27c0 9776 af3f
00000310: 913b 77be c504 c5be 1e47 1d3f 88df a03e
00000320: 2818 1ebf 56c6 2d3c 7156 1dbf 049b 8bbe
00000330: 6f57 e53f 222e fabe 15b4 d6bf b00b 9cbe
00000340: 228b 493d 8a40 81bf 6f20 ee3d 973d 57bc
00000350: 17dc e4bd ef7b e1be 5b5e 443f 4adf f53f
00000360: 4730 863f e3fb b03e 7d4c 153f 9275 1e3f
00000370: c3f4 0ebd e2ea fd3e e91e ac3e 4d9c 4ebf
00000380: 3369 f73e 1d3f b73e d951 a93f b747 cbbf
00000390: e7af 73bf 7c27 b33f 855b 473f 2494 053f
000003a0: 9045 6ebc d808 143e 329f 4b3f f5e7 943f
000003b0: 0279 e83d 53e9 f33d 4287 69be bb3d d33e
000003c0: dd5f 7fbf ca5a 05bf 7dba 17be 7075 8b3f
000003d0: 319f 80bf 7cdb e6be d1af 5c3f 9184 a03f
000003e0: 6c03 913e c22a 6e3e 4261 1f3f b79d 1e3f
000003f0: b15b 683e 457f edbe 26b2 953f 89da 0940

toclass.bias f4 [18]
-0.25550812 0.15491095 -0.28427166 -0.58449304 0.23817621 0.31776667 -0.15062492 0.09330751
-0.2776023 -0.85817766 -0.3167838 -0.51650876 -0.08103115 0.71285003 -0.025895951 -0.49451542
0.07371138 -0.35223866
00000000: f6d1 82be faa0 1e3e 0e8c 91be 56a1 15bf
00000010: 77e4 733e 50b2 a23e 6b3d 1abe 0218 bf3d
00000020: e321 8ebe 88b1 5bbf 7c31 a2be eb39 04bf
00000030: a9f3 a5bd 577d 363f bf23 d4bc 2031 fdbe
00000040: fef5 963d a058 b4be
