pytorch-examples/rnn-name-classification/data/parameters.pt (torch, 33954 bytes, 10 tensors)

gru.weight_ih_l0 f4 [60, 57]
000000 4c 4e 9f bd 7c c6 fb 3e ee a9 e4 be 8c a4 bf bb
       -0.07778606 0.4917487 -0.44660896 -0.005848473
000010 ed 81 ea 3e 3e 3a 0d 3f 71 f6 7e 3c aa 08 2a bf
       0.4580225 0.55166996 0.015561686 -0.6641947
000020 30 c0 1d 3e 69 9a 90 be da aa bb 3e 8e 08 f8 3d
       0.15405345 -0.28242806 0.36653787 0.12111007
000030 be 7c 20 3d fb ff 5c 3f 18 83 aa 3e bb 4d 37 be
       0.039181463 0.86328095 0.33303142 -0.17900746
000040 7a c8 b4 bf 9a e7 c0 bb b8 b1 cc 3e cd 21 e7 bb
       -1.412368 -0.005886984 0.3997934 -0.00705359
000050 c9 96 18 3e a1 d5 a3 3f 13 60 f9 3d 1b 33 0e 3e
       0.1490127 1.2799569 0.12176528 0.13886683
000060 cf 30 5a bf f4 78 fe 3e 0f ef 3d bf ff 54 0d bf
       -0.85230726 0.49701655 -0.741929 -0.5520782
000070 9c 08 18 be 01 77 33 bf bc cc 97 bd 41 15 ef bd
       -0.14847034 -0.7010346 -0.07412097 -0.11673976
000080 a1 11 e1 be 93 92 1c bf 02 ae 89 3e 24 1e 91 3d
       -0.43958762 -0.61161155 0.2689057 0.07085827
000090 ce 6d c5 be d7 5c 04 bd bc 68 2b be 40 65 dd be
       -0.38560337 -0.0323151 -0.16739172 -0.4324131
0000a0 b9 30 59 bd ea 22 86 3e 15 6b 72 bf e0 3b 17 bf
       -0.05302498 0.26198512 -0.94694644 -0.59075737
0000b0 54 c5 16 bf 17 c3 f5 3d fe 6c 13 be fa 89 8f 3e
       -0.5889485 0.12000101 -0.14397046 0.28034955
0000c0 07 1c c1 be 5f 36 3d bf a8 2f 09 bf f6 f0 63 be
       -0.37716696 -0.7391109 -0.5358834 -0.22259888
0000d0 d0 b1 09 3e b5 64 0a bd 51 a5 fc 3d 40 16 29 3d
       0.13446736 -0.033787448 0.12336219 0.041280985
0000e0 7b 68 6f 3f 4e 95 40 be 16 0c 4d 3f 45 39 f8 be
       0.935188 -0.18806955 0.80096567 -0.48481193
0000f0 64 0f 2b 3d b0 80 84 bf 03 25 a1 3f 70 04 eb be
       0.041762725 -1.0351772 1.258942 -0.45901823
000100 a7 e4 28 bf 47 e4 a5 be ee 2e 14 3f 15 76 d2 3f
       -0.65973896 -0.32400724 0.5788411 1.6442286
000110 28 3c 73 3e dc 35 03 3f d0 99 bd bf 11 87 ea be
       0.23753417 0.5125406 -1.4812565 -0.45806172
000120 8d 89 f9 be e6 00 48 bf d7 fb 65 3e 8d df b3 be
       -0.48737755 -0.7812637 0.2245935 -0.35131493
000130 8a e7 01 3f 47 c0 84 3f 1a 90 e6 3f 48 90 90 bf
       0.50743926 1.0371178 1.8012726 -1.1294031
000140 45 be 18 be 0a dc 2b 3f a5 e8 40 3f ef b6 4b bf
       -0.14916332 0.6713263 0.7535499 -0.7957601
000150 1d 0a 94 be f3 0e bf 3e e4 11 41 be a0 29 14 bf
       -0.28913966 0.37316093 -0.18854481 -0.57876015
000160 bc ae b7 3f fd 35 66 bf 62 5d 3c bf 5d 5c 8a 3e
       1.43502 -0.8992613 -0.7357999 0.27023593
000170 c2 71 ca 3d ff a8 64 3f 07 82 19 bf 20 5a 0f bf
       0.09884979 0.8932037 -0.5996403 -0.55996895
000180 8f 90 3f bf 6f e3 5a bd 90 38 d8 3f 18 21 68 3f
       -0.74829954 -0.053439554 1.6892262 0.906755
000190 13 6f d3 be 8c af aa 3d 2c 87 90 bf 9b 3b 5c 3e
       -0.4129568 0.08334264 -1.1291251 0.21507113
0001a0 f0 dc bb 3c bd 7c 96 3e 99 5b 8e 3e e1 9a 86 3e
       0.0229325 0.29392043 0.27804258 0.26290038
0001b0 fa ec 7b be d3 05 d9 3e 02 bd 1c bc b8 05 92 3e
       -0.24602118 0.42387256 -0.009566547 0.28519988
0001c0 93 f5 26 3d c5 58 34 3f e3 51 a7 bf 14 cc eb 3f
       0.04076154 0.7044795 -1.3071865 1.8421655
0001d0 1c 33 0e 3f ea 17 14 3f ba b1 a8 bf 38 9d f1 bd
       0.55546737 0.5784899 -1.3179238 -0.11797565
0001e0 73 a5 80 3f 37 c4 36 3f a0 71 0d bf 82 d9 e3 3e
       1.0050491 0.7139315 -0.55251503 0.44501883
0001f0 4d 57 6a bf 7a 14 35 be f3 9c 71 be bf 84 90 be
       -0.9153946 -0.17683592 -0.23595028 -0.28226277
000200 bf 7d 89 be 55 b7 29 bf b9 14 d6 3e 89 44 db 3f
       -0.2685375 -0.6629537 0.41812685 1.713029
000210 ff 97 e4 be 20 a6 b3 3e 5e aa 48 3f 3f ae be bf
       -0.44647214 0.3508768 0.7838496 -1.4896926
000220 cb 85 3b bf 22 48 fc be 20 a1 8a 3f 14 7a 85 3f
       -0.73251027 -0.49273783 1.0830421 1.042788
000230 39 27 6c 3f f3 05 10 be 3b d2 00 bf 0c d7 fd be
       0.9224735 -0.1406477 -0.50320786 -0.4957813
000240 a1 aa 27 bf 84 2e df be 7a a7 64 bd 73 3c 07 3e
       -0.65494734 -0.43590176 -0.05582378 0.13206653
000250 93 67 34 3f c1 e5 c1 be bd 57 5e 3f 77 14 41 bf
       0.7047054 -0.378706 0.8685263 -0.7542185
000260 18 93 99 be 9c cb 8f 3e eb 85 a1 be ea 55 5b bf
       -0.29995036 0.2808503 -0.31547484 -0.8567797
000270 80 58 a3 3d 5c 0d 54 bf e2 52 eb 3e 8c 31 89 3e
       0.079758644 -0.82832885 0.45961672 0.26795614
000280 ea 1e 3f 3e 2e ea 28 bf b1 73 13 3f c5 22 6f 3f
       0.18664137 -0.6598233 0.57598406 0.9341243
000290 d0 41 da be 28 ad 04 be eb 56 09 bd f0 c1 ce bd
       -0.42628336 -0.12956679 -0.033530157 -0.100955844
0002a0 96 29 cc be c2 4f ed bd fa 2c 21 bf 00 5b f2 be
       -0.39875478 -0.11587478 -0.62959254 -0.47335052
0002b0 dd 4d 3e bf 6b 0e 8d bf 5b 86 2f bf d6 39 c5 3e
       -0.7433756 -1.1020025 -0.68564385 0.38520688
0002c0 04 45 a1 be 10 e6 a4 bf b3 eb 22 be 25 8e 87 3e
       -0.31497967 -1.288271 -0.15910225 0.26475635
0002d0 78 95 de 3e 79 1a 13 3f 95 2c 46 3f fb 0d 3a bf
       0.4347341 0.5746227 0.77411777 -0.7267758
0002e0 f0 dc 77 be 00 84 57 bf 7e 0c ec bd ce ce f5 3d
       -0.24205375 -0.8418579 -0.1152582 0.120023355
0002f0 39 0f 3f be af 6d c0 be 9e 3b 9a be 8e 78 ac be
       -0.1865815 -0.37583682 -0.3012361 -0.33685726
000300 b0 07 75 3f 0c 29 0e bf 52 e4 ab bf 48 1f 67 be
       0.95714855 -0.5553138 -1.3429053 -0.22570527
000310 26 11 d5 3f 05 fa e9 be e5 c4 82 3c 26 bc ca be
       1.6645858 -0.45698562 0.015963027 -0.3959667
000320 20 2c ca 3e 63 93 96 3e 17 67 f3 3f c6 12 e4 3d
       0.3948679 0.29409322 1.9015836 0.11136393
000330 2e 69 35 bf 13 a2 98 3e 7d 0e 83 3d cc df 2a 3d
       -0.70863616 0.29811153 0.06399248 0.041717336
000340 49 29 91 be 18 b4 23 3d ed 64 70 bf 1c 05 01 3e
       -0.2835181 0.039966673 -0.93904 0.12599605
000350 9e 67 89 3f 4c 92 78 3e 06 ea 99 bf 33 26 de be
       1.0734746 0.24274558 -1.2024543 -0.4338852
000360 ee 88 cc 3f 33 4c b0 bc d5 20 3e bc 88 08 ba 3e
       1.5979288 -0.02152071 -0.011604507 0.36334634
000370 08 e1 42 3e 5f 99 96 3d 9a fc 8f be 1c 7d 80 3f
       0.19031155 0.07353472 -0.28122407 1.003818
000380 d9 dd a2 bd 74 56 53 3e 5c ee 0a be a6 36 42 3f
       -0.0795247 0.20638448 -0.1356749 0.75864637
000390 a5 1d 19 3f 45 cb 4f 3f c7 4b 83 bf c5 70 0e bf
       0.5981086 0.8116954 -1.02575 -0.5564082
0003a0 6a 35 94 3e d3 5d c8 bf 88 8e b9 3e fc 1e b2 bf
       0.28947002 -1.5653633 0.36241555 -1.3915706
0003b0 e9 5f d7 3d 30 13 1f 3f 53 53 ca bf 33 d8 16 3f
       0.1051634 0.6213865 -1.5806679 0.58923644
0003c0 6c f1 a0 3f 10 b2 60 bf d7 44 ae bf f7 32 01 bf
       1.2573676 -0.877717 -1.3614758 -0.5046839
0003d0 ce 62 cb bc 4b f8 06 bb db f3 07 3f 7b 48 c2 be
       -0.024827387 -0.0020594771 0.5310647 -0.37945923
0003e0 26 74 66 bd 86 1f e5 be a6 8d 5d 3f 33 1c 3a bf
       -0.05626311 -0.44750613 0.86544263 -0.7269928
0003f0 32 73 4f bf 65 69 51 bf 73 a4 a7 3e 08 cb 3c 3e
       -0.8103515 -0.81801444 0.32742652 0.18436825

gru.weight_hh_l0 f4 [60, 20]
000000 62 6b cc 3e 1c 0c 14 3f 9c e6 25 bf 29 9e 14 bd
       0.39925677 0.5783098 -0.64805007 -0.036283646
000010 9b b7 55 bf c5 61 bf be 80 25 e5 be f8 c9 90 bb
       -0.83483285 -0.3737928 -0.44755173 -0.004418608
000020 1b 88 41 bf 1f 8b e3 3d aa c7 cd be 69 51 fd 3e
       -0.75598305 0.111105196 -0.40191394 0.49476174
000030 19 60 b6 bd 24 04 10 bf b2 a1 be 3e 95 33 7c 3e
       -0.08905048 -0.5625632 0.3723274 0.24629052
000040 43 cc e9 3e ea 02 a2 3e 26 aa 95 3e 65 8d df be
       0.45663652 0.31642848 0.29231375 -0.43662563
000050 12 d8 77 3e 6f d9 0d bf 93 cb 63 bc 0a 95 85 be
       0.24203518 -0.554099 -0.013903516 -0.2609027
000060 ce 07 4a bd 5a 85 da 3e ba a8 b8 bd 1b f9 dc 3e
       -0.04932385 0.42679864 -0.09016557 0.43158802
000070 36 54 c5 3d 22 53 09 bd df 8f 1a 3f 71 0a 9c 3e
       0.096352026 -0.033526547 0.6037578 0.30476716
000080 36 00 ad 3e 6d 52 52 3f f3 6f fa 3e 5b d1 80 3e
       0.33789223 0.8215702 0.48913535 0.25159726
000090 32 a8 a7 bd a8 f4 2a 3d ec 78 75 3e 18 a7 ef 3e
       -0.081863776 0.04173723 0.2397191 0.4680717
0000a0 3d 4b 80 3e 14 2f 6a be c4 31 b4 3e c4 19 18 3f
       0.25057402 -0.22869521 0.35194218 0.59414315
0000b0 49 e8 e6 3e 7b 1a a5 3e e3 c7 b6 be 70 7d 29 3c
       0.45099095 0.32246765 -0.35699376 0.010344848
0000c0 40 00 e5 3d 30 80 c1 be 4c a0 27 3e cb c4 20 3d
       0.11181688 -0.37793112 0.16369742 0.039250176
0000d0 d3 1f 24 bf a2 72 85 bf 07 d1 f0 3e b7 a4 c7 3e
       -0.6411106 -1.0425608 0.47034475 0.38992855
0000e0 ba 0a bc 3e 8c 08 74 be 04 38 56 bd 35 07 c6 3d
       0.36726934 -0.23831385 -0.052299514 0.096693434
0000f0 30 b0 93 3e b6 e1 86 bd b0 51 c1 be 80 b4 c0 be
       0.28845358 -0.0658602 -0.37757635 -0.3763771
000100 69 cc 0a 3e dd b0 c5 3e 5c 86 2a 3d bc 24 c0 3e
       0.13554539 0.38611498 0.04163204 0.37528026
000110 cb 0d 54 3c d0 97 58 3e e7 90 23 3f 9e b9 17 3e
       0.012942742 0.21151662 0.6389298 0.14816901
000120 69 48 c1 3d 20 d1 e9 be 69 2f cc be 02 52 9b be
       0.09437639 -0.45667362 -0.3987992 -0.30336004
000130 05 ee b6 be 34 f4 d1 3c 8d 08 7f 3e e0 cb 4e 3f
       -0.3572847 0.02562914 0.24905606 0.8077984
000140 72 c7 16 3f d2 b3 7b 3f 3f 6f 35 3f c8 d3 34 3f
       0.5889808 0.9832126 0.70872873 0.7063565
000150 ae b4 98 3d 85 4c 1b bf 55 5f 70 3e 20 52 d2 be
       0.07456337 -0.60663635 0.23473866 -0.4107828
000160 27 18 c8 be 54 f2 d7 3e 9f 8d 31 bd 83 f3 b2 bd
       -0.39080927 0.4217707 -0.04334795 -0.087378524
000170 ab 73 81 be dc f6 43 be 6f 1c 88 3f c7 96 f0 3e
       -0.2528356 -0.19137138 1.0633677 0.46990034
000180 28 db 9b 3e c0 82 03 bf 10 89 bd 3e 6d 9b 3c 3e
       0.3044064 -0.51371384 0.37018633 0.18418665
000190 d4 ea 4b be 92 77 7f bf 9c 3e 96 3d 72 8e 23 bf
       -0.19913799 -0.99791825 0.073361605 -0.6388923
0001a0 f8 28 af 3e 8e a6 0d 3f ac 70 32 be 2d 69 02 be
       0.34210944 0.5533227 -0.17425793 -0.12735434
0001b0 5f c1 56 3f e4 24 41 be da c5 7b be 67 0b 0e be
       0.8388881 -0.18861729 -0.24587193 -0.13871537
0001c0 15 a8 03 be c0 da 20 3f ba ef b6 bb ba 04 71 3d
       -0.12857087 0.62833786 -0.005582777 0.0588424
0001d0 4a e8 53 3f f7 31 35 3e c5 27 59 3d e3 27 8c be
       0.8277632 0.17694841 0.053016443 -0.2737418
0001e0 ef 97 31 3e 3c 2d 19 3f ff 0a f0 3b d3 05 05 be
       0.17343114 0.5983465 0.0073255296 -0.12990503
0001f0 ba 93 9c 3c 86 cd 96 3d 14 8c 11 be 4b cd b1 3e
       0.01911341 0.07363419 -0.14213592 0.3472694
000200 a0 80 9d 3e 2e 00 86 3d 7c 88 03 3f 8c f3 5d 3e
       0.30762196 0.06543003 0.51380134 0.21674937
000210 e4 3c a8 3e 07 dd 48 3d 91 8f 2d 3e 1d 66 23 be
       0.32858956 0.049038913 0.16949297 -0.15956922
000220 56 61 83 3e d9 0d d0 be d2 49 63 bd 7a a9 3a be
       0.256602 -0.40635565 -0.055490322 -0.18228713
000230 de d0 0c bc 78 7e f0 3e 85 69 71 be fc bd db 3e
       -0.00859472 0.46971488 -0.23575409 0.42918384
000240 dd cf 25 3f aa 6f cd bd 4d e6 13 3f 37 61 5e be
       0.647703 -0.10031064 0.57773286 -0.21716772
000250 5d 88 37 3f cc 65 80 3e 5f 65 3b be ae 12 03 be
       0.7169245 0.25077665 -0.18300389 -0.12800094
000260 30 9c 4a bd e6 92 f5 3e 92 c8 9b 3e 9f 23 06 3f
       -0.04946536 0.47963637 0.3042646 0.52398103
000270 e7 a7 76 3e 55 13 2c bf 4f 7d 33 be c6 e6 01 bf
       0.24087487 -0.67217 -0.1752827 -0.5074276
000280 b3 7e f4 3c d2 40 5b 3e d5 3d c2 3e e1 40 69 3e
       0.029845571 0.21411446 0.379378 0.22778656
000290 51 dd 24 3e e7 96 01 3f 0a c8 e7 bd 3c 9e 21 3d
       0.1610005 0.50620884 -0.11317451 0.039457545
0002a0 20 38 f3 bd 47 51 ce 3e dd 86 a2 3e 9b af df bd
       -0.11875939 0.40296385 0.31743518 -0.10922166
0002b0 d0 b2 13 bd 86 68 39 3f 36 77 be 3b 7c 72 bf 3e
       -0.0360592 0.72425115 0.005812551 0.37392032
0002c0 f0 9e eb 3d e8 74 e7 bd de 58 14 bd 9e d0 12 bf
       0.11504924 -0.11301595 -0.036217563 -0.57349575
0002d0 37 3b 0e 3f 03 bb 93 be de d4 01 3e 2e 13 cd be
       0.55559105 -0.28853616 0.12678859 -0.40053695
0002e0 c9 3f 18 3f c3 e5 b5 bd bf 7d 38 3e 76 52 2f 3e
       0.5947233 -0.08881714 0.18016718 0.171213
0002f0 cf ca a3 3f 32 28 28 bb 2a 4c d1 3e fa 61 de be
       1.2796267 -0.0025658724 0.4087842 -0.43434125
000300 c0 ca 7d bf 03 dc 55 3e 75 9d 2a 3f 35 5c cc be
       -0.99137497 0.20884709 0.6664651 -0.39914098
000310 83 5d f6 3e d0 f5 c9 be 98 c1 60 3e 73 fa e9 3e
       0.4811822 -0.39445353 0.2194885 0.4569889
000320 a4 6e 69 3e e4 a8 ad be fd ba bb be e9 fd 04 3e
       0.22796112 -0.33917916 -0.36666098 0.12987484
000330 b0 8f 0b be 28 37 81 3e 1b 2a 1e be 56 0f cf be
       -0.13629031 0.25237393 -0.1544575 -0.40441388
000340 cc 78 15 3f 13 c8 da 3c dd e4 e9 3e 4c 2c 8e bd
       0.58387446 0.026706731 0.4568242 -0.06942043
000350 d2 61 b0 3e 65 bd 95 3e 4f 58 44 3e c9 a6 52 3e
       0.3444963 0.2924606 0.19174312 0.20571436
000360 41 98 ba be 8c a3 cb 3c 7e 26 cf 3e 63 29 74 be
       -0.36444286 0.024858259 0.40459055 -0.23843913
000370 ce 39 6d bd 59 9b 4a 3e 4c 1a 80 3e 00 95 14 3e
       -0.057916455 0.19785823 0.25020063 0.14509964
000380 b8 35 c2 3c ed 98 c4 3e 32 cc 04 bf be 2c db 3d
       0.023707256 0.38397923 -0.5187408 0.10701893
000390 cc c8 b1 bd 61 3c 43 bd aa 0b cf be e5 35 ac be
       -0.08680877 -0.047665004 -0.40438586 -0.33634868
0003a0 79 42 1c bf 68 8e 95 3d 71 37 39 3d 7e bc b5 3e
       -0.6103893 0.073025525 0.04521889 0.3549537
0003b0 1b 3b 91 3e 7e 86 8a be 33 6a 42 3e e4 be 52 3e
       0.28365406 -0.27055734 0.18985824 0.20580631
0003c0 aa 59 72 bd b4 6d 0f bf 97 b4 0e bf 29 3e f4 be
       -0.05916754 -0.5602677 -0.5574431 -0.47703674
0003d0 13 7d de be 57 e4 b9 bc bd 0e f9 bd 41 5b 02 bd
       -0.434548 -0.022691889 -0.12161014 -0.031825308
0003e0 71 de ff be cc 72 1e bf 8a 89 07 3f 94 37 45 3e
       -0.49974397 -0.61893916 0.5294424 0.19259483
0003f0 9e 40 cf 3e 6c 67 6e bc 9f 5c 03 be 40 ad d7 bd
       0.40478987 -0.014551025 -0.12828301 -0.10531092

gru.bias_ih_l0 f4 [60]
000000 bf 12 79 be bf 4f d3 3d 90 58 8e be 56 cd d4 bd
       -0.24323557 0.10317945 -0.27801943 -0.10390727
000010 4c 33 a5 be ee 4f 0a 3e be f7 df be 5e d6 06 3d
       -0.322657 0.13507053 -0.437437 0.03291928
000020 d8 dd 64 be ec 53 33 bd e1 75 cb bd 56 d6 c3 be
       -0.22350252 -0.043781206 -0.09934593 -0.38249463
000030 89 14 91 be 20 44 cb be ba ae a9 be 9a 5d 00 3d
       -0.2833598 -0.39700413 -0.33141118 0.031339265
000040 19 c6 a1 bd a7 5d 40 be 36 50 f7 be f9 65 ff bd
       -0.07899112 -0.18785726 -0.48303384 -0.124706216
000050 99 de bd be 91 d7 af 3d 2e 7d 2d bf 49 e0 59 3e
       -0.3708389 0.08586038 -0.67769134 0.21276964
000060 09 a9 00 bf c3 40 7c 3e e3 5e db be 78 56 d2 be
       -0.5025793 0.2463408 -0.4284583 -0.41081595
000070 ae 64 00 3e e4 ad 77 3d ff 7e 3b bf 91 43 83 bf
       0.12538406 0.06046857 -0.73240656 -1.0254995
000080 5c 95 e6 3d fb ee 00 bf 85 66 35 3d 67 2e d2 bd
       0.11258957 -0.50364655 0.044287223 -0.10262757
000090 28 ad 9c bd a4 d7 bd 3e 78 7f 24 bf 8c 70 8b be
       -0.076502144 0.37078583 -0.64257 -0.27234304
0000a0 3d 30 5e 3c 66 82 9c bc 87 67 93 3d 54 6e b2 bc
       0.013561306 -0.019105148 0.07197481 -0.021781124
0000b0 24 aa d5 3c 0a 3f 3d bd 79 d2 0e 3e 95 f7 40 bd
       0.026082106 -0.046202697 0.13947476 -0.047111113
0000c0 e7 b6 e2 bd c4 a2 60 3d 34 9e 20 be c6 0c 2f be
       -0.11070042 0.054842725 -0.1568535 -0.17094716
0000d0 42 a6 d1 bb 41 f6 eb 3d db 88 27 be 07 47 0d 3e
       -0.0063979933 0.115215786 -0.163608 0.13796626
0000e0 fc 61 7e 3d 6b 68 78 3e ee f1 43 bd ae 40 2c 3e
       0.062105164 0.24258582 -0.047838144 0.16821548

gru.bias_hh_l0 f4 [60]
000000 57 01 07 be 1d 6e b0 3d 8c 49 88 be 05 b9 69 be
       -0.13184105 0.086147524 -0.26618612 -0.22824486
000010 08 ff 02 bf 4c 29 3d 3e 1e db c2 be bf 5c c0 3d
       -0.51170397 0.18472785 -0.38057798 0.0939269
000020 78 32 e5 bd ee 8f 8e bd 6a 9f 96 be 86 b9 01 bd
       -0.11191267 -0.06961046 -0.29418498 -0.03167107
000030 ba 4c 59 bd a3 7c 75 be c8 02 28 be 38 08 ed 3d
       -0.053051688 -0.23973326 -0.16407311 0.11573833
000040 1d ef c5 bd 10 1a c4 be 20 9e 01 bf 41 a8 0a bc
       -0.09664748 -0.38301134 -0.50631905 -0.008462966
000050 f0 17 e8 be 57 5d 42 3e cb 1e c6 be 84 7e bd 3e
       -0.45330763 0.18980919 -0.38695368 0.37010586
000060 49 dc 08 bf 57 1b 59 3e 1b 7a 06 bf af 3a bf be
       -0.5346113 0.21201836 -0.5253007 -0.3734946
000070 90 d5 50 3e 0e 68 b7 3d e4 89 37 bf 52 81 58 bf
       0.20393968 0.08955394 -0.7169478 -0.8457233
000080 b7 ce 27 3e 57 f2 c2 be 00 bf 7c 3e c4 17 0f 3d
       0.16387449 -0.38075516 0.24682236 0.034934774
000090 b8 4e 8e be 42 ae b6 3e 7a 09 27 bf 50 fc 8a be
       -0.27794433 0.35679823 -0.65248835 -0.27145624
0000a0 18 d5 5a be d2 27 96 3d 8b 7b 63 3e 22 61 24 3e
       -0.21370351 0.07331814 0.22215097 0.16052678
0000b0 bb a3 1f 3e 75 66 5b 3e 86 a0 00 be a5 89 86 be
       0.15589802 0.21425803 -0.12561235 -0.2627689
0000c0 40 4c eb 3d b1 bf 56 be 2f a4 43 be 6c 81 4a bd
       0.11489153 -0.20971562 -0.191056 -0.049439833
0000d0 f8 d4 a4 bc 66 dd 23 be dc f2 36 be 85 08 e3 bd
       -0.020121083 -0.16002426 -0.17866081 -0.11085609
0000e0 09 18 54 bd 13 c3 1e be 56 e1 68 be 02 6e 9a be
       -0.051780734 -0.15504102 -0.22742209 -0.30162054

gru.weight_ih_l1 f4 [60, 20]
000000 13 be 28 bd d3 f4 2b 3e da f4 c4 bf 41 50 89 be
       -0.041196894 0.16792612 -1.5387223 -0.2681904
000010 9d 50 27 3c 77 e1 c5 3e 9c ed d2 3d 07 c8 21 3f
       0.010212091 0.3864858 0.10299227 0.6319584
000020 9e aa 42 bf 3e ed 2a bd cc a3 3a bf 3f 0e a4 bd
       -0.7604159 -0.041730158 -0.72906184 -0.0801053
000030 b1 f9 9c 3e 8d ec dd bd 49 fb 46 3a 70 e4 6e be
       0.3065925 -0.10836134 0.0007590545 -0.2332933
000040 57 a4 f5 be 40 d8 81 3e bd 00 ba 3e 9e 36 fe be
       -0.47976944 0.25360298 0.36328688 -0.49651045
000050 00 58 15 3e 86 19 5b be 14 3d 82 3c 93 08 b0 3c
       0.1458435 -0.21396455 0.015898265 0.021488464
000060 42 4d bc 3e 74 70 9b bd 04 56 88 3f dc c4 23 bf
       0.36777693 -0.07589808 1.065125 -0.6397226
000070 f1 60 07 be 6a 4e c2 3f 54 1b 0f 3f 52 f4 f4 3b
       -0.13220574 1.518018 0.55901074 0.0074754143
000080 f2 b7 3f 3e 3a ab 4e 3d db f7 3e bf c6 99 48 3d
       0.18722513 0.050456263 -0.7459695 0.048974775
000090 d5 76 cc bf c7 43 c7 bd 89 23 9d be d0 40 67 bf
       -1.5973765 -0.097297244 -0.30691174 -0.9033327
0000a0 f3 ff 0b 3e c9 e4 ae 3e d5 e3 89 bf ad 07 97 bd
       0.13671856 0.34158924 -1.0772654 -0.07374511
0000b0 1c 5c ae 3e 65 f3 0f 3e 5f 59 e5 3e e8 68 8a be
       0.3405465 0.14057691 0.44794747 -0.27033162
0000c0 96 74 09 bd c1 c1 45 3f 11 ea 2f be 54 44 aa 3e
       -0.03355845 0.7724877 -0.17179133 0.33255255
0000d0 b0 b4 1f 3d ed 6d 2f 3f 32 06 17 3f eb 8c 00 be
       0.038990676 0.6852711 0.5899383 -0.12553756
0000e0 2d 16 42 bf 53 72 e3 3d ce 92 cf 3e 8f a2 a2 bf
       -0.7581509 0.1110579 0.4054169 -1.2705859
0000f0 06 84 d0 3e ed ed a0 bd 11 fd 85 3d a7 e3 89 3f
       0.40725726 -0.07857881 0.06542409 1.0772599
000100 6a 59 9f 3f ec d5 a8 be 68 2c cf be 2f fa d8 3e
       1.2449162 -0.3297571 -0.40463567 0.42378375
000110 77 1c 26 3f 50 6e b4 be 0f 78 fb bc bf 63 08 bf
       0.64887184 -0.35240412 -0.030696897 -0.532772
000120 49 c2 ab be a0 b8 ae 3e 4d 95 55 3f 60 b7 b3 3e
       -0.33546665 0.34125233 0.8343094 0.35100842
000130 b0 94 8c 3f dc 09 d5 be e6 63 af 3e d2 7d df bd
       1.0982876 -0.41609085 0.34255904 -0.1091267
000140 cb ef 05 3f be 42 f0 be 44 fd b4 3e 16 69 94 3c
       0.5231902 -0.4692592 0.35349476 0.018116515
000150 06 c7 c8 3d c8 9d 8b bd a9 d2 92 3f e0 00 0c bf
       0.09803586 -0.06817204 1.1470538 -0.54688835
000160 ab 8f 68 3f 6e e6 28 be 2c 13 ff be b6 d0 b7 be
       0.9084422 -0.16494152 -0.49819314 -0.3590142
000170 37 30 5f bf e4 77 8c 3e bf 9b 72 3f 58 d2 c6 3e
       -0.87182945 0.2743522 0.947689 0.38832355
000180 0b eb f5 3e f5 97 27 bf 63 11 9a bd da 67 76 bf
       0.48030886 -0.65466243 -0.075228475 -0.96252215
000190 6e 40 8e 3e 00 19 10 3f c6 c9 5f bf fb f5 4c 3f
       0.2778353 0.56288147 -0.87417257 0.80062836
0001a0 11 73 41 be 07 d3 0a 3e 13 4a af 3f 59 d7 b0 3d
       -0.1889155 0.13557063 1.3694481 0.08634824
0001b0 fe e6 85 3f 9a d8 75 3f 23 0a 67 3f f0 5f b5 3f
       1.0461118 0.9603363 0.9024984 1.4169903
0001c0 9a d4 cb be c0 f9 63 3f 09 40 a3 3e 8c 1e 0e be
       -0.3981064 0.89052963 0.31884792 -0.1387884
0001d0 1e d8 71 3d ca 04 15 bf 77 18 40 bd b2 18 df 3e
       0.059043996 -0.5821043 -0.04689833 0.4357353
0001e0 91 0c 1b bd 07 d8 08 bd 0e 0f 1a 3e 34 e9 ca 3e
       -0.03785378 -0.033409145 0.15044805 0.39631045
0001f0 99 10 5a bf 5c 6e 28 3e 44 25 c5 3e c8 46 dc be
       -0.85181576 0.16448349 0.38504994 -0.43022752
000200 8e 53 01 bf 90 c4 84 3f 8d f8 6e 3f c5 ce 96 3d
       -0.5051812 1.0372486 0.9334801 0.07363657
000210 ff b9 1f 3e f7 2c 97 be ef 1c 6b be 9f f5 42 be
       0.15598296 -0.29526493 -0.22960256 -0.1903901
000220 0b b8 02 3d 24 ef 7a be f3 27 c9 bf 66 f5 a8 bf
       0.0319138 -0.24505287 -1.5715317 -1.319989
000230 44 d1 8b bc d6 38 a7 3e 94 6a 51 be b6 74 eb 3d
       -0.017067559 0.3266055 -0.20450813 0.1149687
000240 97 4a 18 3f b8 e4 a3 3e 7d 89 88 bf 73 20 c1 bd
       0.59488815 0.32010436 -1.0666958 -0.09430017
000250 a7 63 d6 be cf 68 2a 3e 7a 2f a7 bd e1 f4 04 3f
       -0.41872904 0.16641544 -0.08163352 0.51936156
000260 fc bc 82 be 76 94 32 3e a1 a5 13 3f 00 a6 ef 3d
       -0.2553481 0.17439446 0.57674605 0.11701584
000270 99 a8 9e 3d 5e 37 85 bc d7 a1 54 3d 27 22 62 3e
       0.07747001 -0.016261753 0.051912155 0.2208334
000280 9a 0c bb bd 89 d9 f8 3d b8 cc df be bc ab a0 be
       -0.09133263 0.121508665 -0.43710876 -0.31381023
000290 37 dd 66 be 75 65 26 be 35 69 93 3e a0 4b 89 be
       -0.22545324 -0.1624964 0.28791204 -0.2681551
0002a0 01 57 7f bc 5a 1d 41 3f 22 11 27 3f 78 0d 8f 3d
       -0.015584708 0.7543541 0.6526052 0.06984991
0002b0 21 71 c0 3c 5e bd 14 3f 98 c6 34 3e a8 92 5f bf
       0.023491444 0.5810145 0.17653883 -0.87333155
0002c0 b0 d0 3c bf c7 8e a9 3d 03 98 f5 3e b6 fc e3 3d
       -0.7375593 0.08279186 0.47967538 0.11132185
0002d0 6f 89 25 bf 26 cf 1b bf 1d 85 43 bd f4 f2 66 3e
       -0.6466283 -0.6086296 -0.04773437 0.22553617
0002e0 76 a8 eb be 92 16 93 3d fe 5c 97 be 61 44 ef bd
       -0.46026963 0.07182039 -0.29563135 -0.11682964
0002f0 4e b9 9f bf 18 44 c1 bf ba 05 23 3f 8c 91 28 bf
       -1.2478426 -1.5098906 0.63680613 -0.65847087
000300 80 f1 c7 3e bc 55 a8 bf ec 05 06 3f 72 8c 62 be
       0.39051437 -1.3151164 0.52352786 -0.22123888
000310 76 0d cf 3e 17 16 f6 3e 86 78 9d 3f 15 d9 8c bd
       0.40439957 0.48063728 1.2302406 -0.068773426
000320 dd 98 4e bf d5 3a 38 3f 9e 2e 07 3f e1 6f 54 3f
       -0.80702 0.7196477 0.5280551 0.82983214
000330 eb 06 31 3f 97 fd 7f bf 0f c3 65 3f 7d 35 b4 3f
       0.6915118 -0.9999632 0.8975076 1.4078823
000340 eb 73 a6 3e bc f9 4a 3f e2 a1 07 3f de 64 38 bf
       0.32510313 0.79287314 0.5298139 -0.7202891
000350 51 7d a7 3e 9e ef e3 be 00 ce 36 bf 40 16 a7 bf
       0.32712796 -0.4451875 -0.7140808 -1.3053665
000360 ed ab 95 3e 3c ec 5a 3f 1e 2c c8 3e 85 15 c2 bf
       0.2923273 0.85516715 0.3909616 -1.5162817
000370 13 84 cd be f8 3a ef bd ec 2d 0a 3f 2d 2b 18 bd
       -0.40139827 -0.11681169 0.5397632 -0.03715055
000380 ef 14 07 bf c4 06 4e 3f d7 83 a4 3e 07 37 20 bf
       -0.5276632 0.80479074 0.32131836 -0.62583965
000390 d1 69 25 bf 72 49 43 be cc 6b 49 3c 8f 1b d0 be
       -0.6461459 -0.19070986 0.012293767 -0.40646026
0003a0 a5 01 4b be de b9 0e bf 0a e8 60 3d f2 ef ee bb
       -0.19824846 -0.5575236 0.05490879 -0.0072917873
0003b0 57 f7 c6 bd 3c 24 89 3c d7 cc 7d 3d b8 ef ad be
       -0.09715145 0.01674091 0.06196293 -0.33971953
0003c0 f0 c3 6a be c6 7a 93 bf ba e4 5c 3f 0a 79 6e 3e
       -0.22926307 -1.1521842 0.8628651 0.2328836
0003d0 5b 26 7c bb 5e f1 ef 3c 48 42 3b bf a4 ed 5f bf
       -0.003847501 0.029289898 -0.7314801 -0.87471986
0003e0 e8 21 8e 3e 37 f3 18 bf e2 ef dc 3f 23 90 46 3e
       0.27760243 -0.59746116 1.7260706 0.19390921
0003f0 23 de db 3d 54 0e 4a bf b5 35 28 bd 85 f6 61 bc
       0.107357286 -0.78928113 -0.041066844 -0.013791685

gru.weight_hh_l1 f4 [60, 20]
000000 69 00 a5 bd f2 6c c9 bd 72 45 07 be 76 9f c2 be
       -0.08056719 -0.09835233 -0.13210085 -0.38012284
000010 db 67 15 3f 43 b9 a4 bd 5c d8 41 3e 63 ef e5 be
       0.58361596 -0.08043148 0.18930191 -0.449092
000020 4e 8c 2b be 16 60 bc bd 5a fd 74 bc 5a 16 02 be
       -0.1675274 -0.091980144 -0.014952982 -0.12703839
000030 6d 2d 80 3e cf 98 b6 3d d8 da f3 bb b2 ae 0d bf
       0.25034657 0.08915865 -0.0074418597 -0.5534469
000040 46 5e 08 bf 64 6b 04 3d 23 64 9d be c9 cd 4e 3e
       -0.5326885 0.03232898 -0.3074046 0.20195688
000050 52 2f 27 3e 9d 6d ba 3f 7d a4 41 3f 9a a4 00 be
       0.16326645 1.4564701 0.75641614 -0.1256279
000060 50 57 6b 3c c2 c6 c1 bd 3a c1 6d 3f 88 59 d8 3c
       0.014364079 -0.09461738 0.92872965 0.02640988
000070 c5 f7 38 be 75 0c db bc 59 09 91 3f 03 d2 fb 3d
       -0.18063267 -0.026739338 1.1330978 0.12295916
000080 6b 29 5a be 74 fb 3c be e1 ca bc 3f e7 ec 42 3f
       -0.21304862 -0.18455297 1.4749414 0.76142734
000090 fd f2 83 be f1 7c a6 be 0f 64 89 bd 1f de b0 3d
       -0.25771323 -0.32517198 -0.06708538 0.08636116
0000a0 c0 62 88 3e 08 8c 81 3e d1 91 82 3e 80 92 a9 bd
       0.2663784 0.25302148 0.25501874 -0.08279896
0000b0 85 48 34 bf 50 61 5e bf 29 cd a3 3f 25 62 88 3e
       -0.70423156 -0.8686724 1.2796985 0.26637378
0000c0 89 b7 a3 3d cb 19 66 be fc 9b 4e 3f 13 69 92 bd
       0.07993991 -0.22470777 0.80706763 -0.071489476
0000d0 1e 33 02 bd dc 4a ee bc 7b 7e 44 3f 45 9b 34 3e
       -0.03178703 -0.02908843 0.76755494 0.17637356
0000e0 25 be 51 bf 8b 2d 95 3e e4 df 39 3e 09 95 5a be
       -0.8193076 0.2913631 0.18151814 -0.21345915
0000f0 8a d2 12 3e fe e3 4f bf 4a 50 e1 be 15 5a b0 3e
       0.14338127 -0.81207263 -0.44006568 0.34443727
000100 4c bf 06 3e 4c fa 1d bf 52 12 0c bf 24 88 1a 3f
       0.13158911 -0.6171005 -0.54715455 0.60363984
000110 26 3d 2c bf 88 60 4b bf 5e 13 81 bf 5d 6e b2 3e
       -0.67280805 -0.7944417 -1.0084035 0.34849826
000120 8a 9a 9e 3e 18 17 63 be b2 da 00 bf 32 67 85 3e
       0.3097728 -0.22176778 -0.503337 0.26055294
000130 e8 d4 0b 3f 77 54 e9 3f ec 6d af 3e f4 cb ea 3e
       0.54621744 1.8228902 0.3426355 0.4585873
000140 08 e0 8a be c1 34 5f be 76 f9 03 bf 8b f0 e1 3e
       -0.27124047 -0.21797468 -0.5155252 0.44128832
000150 16 6b 2c 3f fa f2 4e be 19 80 e5 3d 10 03 3e bf
       0.673509 -0.20209876 0.11206073 -0.74223423
000160 6b b3 52 bc 66 76 da 3e 57 0a 81 3f 61 71 c6 3e
       -0.012860159 0.42668456 1.008128 0.38758376
000170 4a d0 f3 3d da d5 5c be fb 52 62 bf 6a f4 9b 3d
       0.11904962 -0.21565953 -0.8840787 0.07614978
000180 a1 ee 1b be f4 f9 48 3e 46 84 a7 3b 49 93 9c 3c
       -0.15227748 0.196266 0.005112204 0.0191132
000190 21 94 8d be 80 a5 a0 be 7f e0 ff 3c 3a d0 04 3d
       -0.27652076 -0.31376266 0.031234978 0.032425143
0001a0 02 db 76 3e 08 29 3b ba ff f7 60 bd eb 41 6a 3d
       0.24106982 -0.0007139598 -0.054924008 0.05719177
0001b0 ab 6d 89 3e 14 43 86 be 04 e5 40 3d de 83 86 be
       0.26841483 -0.26223052 0.047093406 -0.26272482
0001c0 9f 7d db bd a2 8d 70 bc 2c 2a 46 3e f9 20 38 3f
       -0.1071732 -0.014682205 0.19352025 0.7192531
0001d0 97 e3 4b 3f 0f df 40 be 2e b0 ce 3c 96 14 73 3d
       0.7964415 -0.1883509 0.025230493 0.059345804
0001e0 c5 d0 00 3f e8 6b d3 3e 6b 20 37 be 26 1d 4f 3e
       0.5031856 0.41293263 -0.1788346 0.20225963
0001f0 c4 b0 13 3f ff c7 0f 3c 13 7b 4d 3d 5a 48 e7 bd
       0.576916 0.00877571 0.0501662 -0.11293097
000200 f3 1b bd be 8c 19 b3 3d 91 8b d0 be eb d2 72 3d
       -0.36935386 0.08745107 -0.4073148 0.05928318
000210 2f 52 e9 3e 7a 07 7c be 39 ce 07 3f cf 61 11 be
       0.45570514 -0.24612227 0.53049046 -0.14197467
000220 74 f3 a7 bf 86 d4 2b 3f fe fb e6 bd 6d 24 7c bd
       -1.3121171 0.6712116 -0.112785324 -0.061558176
000230 25 28 94 bd f1 e8 8e bd cb 67 66 be b6 cb 45 3f
       -0.072342195 -0.06978024 -0.22500531 0.77263963
000240 1c 5f bd 3c 4e 6c 63 be d7 05 a2 3d cd 50 f3 3e
       0.02311664 -0.22209284 0.0791127 0.47522584
000250 4b 91 36 3b d9 f5 54 be 25 f1 a3 3e 44 72 a8 3d
       0.0027857597 -0.20796908 0.32019916 0.082249194
000260 cf b0 71 3e f2 08 a2 be 35 45 3f bf 55 9d 3e bc
       0.23602603 -0.3164745 -0.74714977 -0.011634191
000270 9a 05 e9 3e ae 73 d8 3e 98 1e 33 3e 92 b1 ae 3d
       0.45512086 0.42275757 0.1749214 0.085299626
000280 b4 25 c7 be 33 ad 6f bd d5 dc 19 bf 71 a2 aa be
       -0.38895953 -0.058514785 -0.6010259 -0.33327058
000290 d2 3e 81 be e9 a3 50 3e 74 6e 39 bd ab 22 28 bf
       -0.2524324 0.20375027 -0.045271352 -0.656779
0002a0 55 bd c4 3e 29 33 94 3e 23 47 75 bc af 9b 09 bf
       0.384257 0.28945282 -0.014970574 -0.5375318
0002b0 5b 2c 91 be 87 7d 17 3f a7 c5 36 3f 63 57 46 3e
       -0.28354153 0.59175915 0.71395344 0.19369273
0002c0 c6 57 b4 bf 96 c3 64 bd fb b8 9e be b2 98 cc bc
       -1.4089286 -0.055850588 -0.31000504 -0.024975155
0002d0 0f 7d f1 3d 67 cd c9 bd 15 7a ec 3d eb fd 03 bf
       0.11791431 -0.098536305 0.11546723 -0.51559323
0002e0 8f cb 82 be b2 7f 4f bd 12 e0 3c bf 58 75 00 3e
       -0.25545928 -0.05065889 -0.73779404 0.12544763
0002f0 c9 f7 33 be 25 3e 50 be 81 98 35 bd a8 24 6c 3d
       -0.17574991 -0.20336206 -0.044334892 0.057652146
000300 74 38 fc bd ad b2 cb be 1e a9 2f bf 0a 75 b4 bb
       -0.12315455 -0.39784756 -0.6861743 -0.005507116
000310 1f 4f a9 3e c7 da 80 be 54 5c 32 bd 30 78 03 be
       0.33068177 -0.25166914 -0.043545082 -0.12838817
000320 54 f3 0d bf bb 0c 04 bf aa 04 be be 4f 86 40 bf
       -0.55449414 -0.51581925 -0.37112933 -0.7520494
000330 64 06 dd be f2 07 8c 3f 80 ae 84 be 90 ad 8a bc
       -0.43168938 1.0939925 -0.25914383 -0.016928464
000340 1e d6 5e 3f e9 81 87 be 6b dd a2 bf be e0 92 bf
       0.87045467 -0.264663 -1.2723821 -1.1474836
000350 dc 64 05 bc bc ee 2b 3f 8e a0 08 3e 6a b7 98 3e
       -0.0081417225 0.67161155 0.13342497 0.29827434
000360 71 ef 3e be ae cf 20 3f f9 1f 82 bf 7a b1 c2 be
       -0.18646027 0.62816894 -1.0166007 -0.3802603
000370 d6 c3 20 be d0 74 7a bd f4 40 18 3e ee ea d0 3e
       -0.15699705 -0.061146557 0.14868528 0.40804237
000380 3e 39 8a 3d 12 4b 9f be 51 b9 5f be 3a d2 b3 3f
       0.06749199 -0.31111962 -0.21848036 1.4048531
000390 66 6e 20 be c3 13 47 3d 1f f6 38 3d 6b 13 0c be
       -0.15667114 0.04860283 0.045156594 -0.13679282
0003a0 c6 e3 37 3f c6 0f 3d 3d a4 a0 96 bf 78 74 ab bf
       0.7183193 0.04615762 -1.1767774 -1.3394918
0003b0 ed 03 df 3e 68 33 cb 3d 89 84 fb 3d 19 74 08 bf
       0.43557683 0.09921914 0.122811384 -0.5330215
0003c0 e8 50 61 3e 23 43 79 bd c5 90 cf 3e 3b 17 96 3d
       0.2200352 -0.060855042 0.40540138 0.073286496
0003d0 53 78 85 bd 66 5c 5c 3e 60 c8 72 3f dc 39 98 3e
       -0.06517091 0.21519622 0.94837 0.29731643
0003e0 d5 b4 4f 3f 6f fc c4 3e af 07 28 bf 97 b5 2a 3e
       0.811353 0.38473842 -0.65636724 0.16670834
0003f0 5c c0 bd be c6 b9 03 3f 37 92 03 3f 27 e8 2d bf
       -0.3706082 0.5145534 0.5139498 -0.6793236

gru.bias_ih_l1 f4 [60]
000000 65 4c 0f 3e b7 88 e3 bd 78 ac 40 be c9 76 8b bc
       0.13993986 -0.11110061 -0.18815792 -0.017024415
000010 10 d7 f3 bd a8 64 02 3e 08 69 35 3e d5 e5 ca bd
       -0.11906254 0.1273371 0.17715847 -0.09907118
000020 80 d5 89 3e f6 1d 8e 3b f0 ad da be bf e9 e1 3e
       0.269207 0.0043370677 -0.4271083 0.44123647
000030 56 24 85 3e a2 e4 4e 3e e3 23 5a be 1d 88 3b be
       0.26004285 0.20204404 -0.21302752 -0.18313642
000040 75 b9 40 be 27 1d 89 be 00 22 e5 3e 2b e8 c7 3e
       -0.18820746 -0.26780054 0.44752502 0.39044318
000050 5f 0c 0a bf 5c b0 8f bd 2f d8 9b 3d 46 78 d6 bd
       -0.53925127 -0.0701606 0.07609593 -0.10472159
000060 a9 3f 05 bf 58 7f 45 3e 58 3f b4 be 61 ce 46 bf
       -0.5205026 0.19286859 -0.35204577 -0.7765866
000070 4f 61 2a 3e 51 fd af 3d ac e4 1d 3d ce e9 22 bd
       0.16638683 0.08593238 0.038548157 -0.039773755
000080 70 61 ec be 10 da 34 be 28 b2 0c bf 73 51 d2 be
       -0.4616809 -0.17661309 -0.54959345 -0.41077766
000090 da 92 9a bf a0 8e 0e bd 3f 51 db 3c 7a d4 bb bc
       -1.2076066 -0.034803987 0.02677214 -0.022928465
0000a0 b3 84 41 be d6 93 7d bd 76 09 70 3e c2 f6 1d be
       -0.18898277 -0.061908565 0.23441109 -0.15426162
0000b0 2d 12 a0 be df 84 06 3e ce f4 39 3d 40 22 de 3e
       -0.31263867 0.13136624 0.04539948 0.43385506
0000c0 27 bd 2c 3e 34 2c b0 bc 07 bd 7a 3e a3 d0 38 be
       0.16869031 -0.021505453 0.2448617 -0.18048339
0000d0 98 8e d3 3d e1 d2 1f 3e 18 76 82 bd 98 2e ce be
       0.10329932 0.15607788 -0.06370181 -0.40269923
0000e0 45 e2 63 be ab 84 55 3e 53 b0 6f be 1d a2 8b be
       -0.22254284 0.2085139 -0.23407106 -0.2727212

gru.bias_hh_l1 f4 [60]
000000 7e 9a 85 3e 10 3e 99 bd f2 61 53 be 7b 7d 9c bd
       0.2609443 -0.074825406 -0.20642832 -0.07641121
000010 66 19 6c 3c 48 b2 25 3e e2 a9 a5 3d 54 0e ba be
       0.014410352 0.1618129 0.08089043 -0.36339056
000020 c2 a0 73 3d b7 02 ad bd 8d 27 b3 be 4d 71 c9 3e
       0.059479482 -0.084477834 -0.34991112 0.39344254
000030 8d 41 12 be d8 f2 a6 bd c9 41 34 3e bb 29 fd 3d
       -0.14282818 -0.081517875 0.1760322 0.12361475
000040 ce 52 aa be 6a 29 26 be 18 c5 4a 3e 5b 67 10 3f
       -0.332663 -0.16226736 0.19801748 0.5640771
000050 59 be 0a bf 14 c1 27 3e 42 0d 2f 3e f0 7e 2e bd
       -0.541967 0.16382247 0.17094901 -0.042601526
000060 69 c1 10 bf 05 96 c7 bd 95 c0 ea be 4a 2c 3e bf
       -0.5654512 -0.09745411 -0.45850053 -0.7428633
000070 26 ca 40 3e b5 e6 0d bc 9c 81 a9 be e6 83 6c 3e
       0.18827114 -0.008660962 -0.33106697 0.2309719
000080 1b 02 5f be c0 8f 8a be 70 cb bf be de cf d5 be
       -0.21778147 -0.27062798 -0.37459898 -0.41760153
000090 c2 1a aa bf 59 ce 1a 3e 8d 99 f7 bd 53 41 ad 3d
       -1.3289416 0.15117778 -0.12089834 0.08459725
0000a0 66 ac 8f be 0f d4 50 3e 84 7c 13 bd 06 09 0c 3e
       -0.28061217 0.20393394 -0.03600742 0.13675317
0000b0 68 21 d1 be 16 09 87 3e 32 c3 32 3f 98 d3 12 bc
       -0.408458 0.2637412 0.69829094 -0.008961581
0000c0 bd d8 d0 bc 16 3c 11 be 4f 02 04 bd cb a9 d6 bd
       -0.025493974 -0.14183077 -0.032228764 -0.10481604
0000d0 b7 c2 6c bd 0b 20 84 3e 9e 48 f7 bd 4f ca dc be
       -0.057802882 0.25805697 -0.120743975 -0.431231
0000e0 e0 01 02 3e 2d 9a 1a bd 7f 8e 4d be 0c 81 37 be
       0.12696028 -0.03774469 -0.20073889 -0.17920321

toclass.weight f4 [18, 20]
000000 6f 78 04 bf 27 fd a4 bc b7 08 c6 bc 5f 3c 8e 3f
       -0.5174627 -0.020140244 -0.024174077 1.1112174
000010 1c ee 64 3d bf 9e 95 3e 32 09 4b bd 8e 9c 69 3f
       0.05589114 0.29222676 -0.049569316 0.9125451
000020 1e 95 69 be a6 08 b4 bf 20 2a e5 be a5 f8 02 3e
       -0.2281079 -1.4065139 -0.447587 0.12790163
000030 56 f5 ae be 23 40 83 3c 78 22 78 3e ef 8a 03 bf
       -0.3417155 0.016021794 0.24231899 -0.5138387
000040 c0 c1 5d be 2a f8 88 bc a6 7d 72 3e a8 28 24 3f
       -0.21655941 -0.016719896 0.23680744 0.64124537
000050 9b 8a 6b be 26 a9 b3 3e 60 42 64 bd 01 32 d9 3d
       -0.23002093 0.35089988 -0.055727363 0.106052406
000060 7d 58 57 bf bb 6a 77 bf 6e 57 43 3f 90 87 97 3e
       -0.841194 -0.9664723 0.7630528 0.29595613
000070 26 84 28 bf 6f 37 2a bf b0 f1 45 3d ba a5 69 3e
       -0.6582664 -0.66490835 0.048326194 0.22817126
000080 a1 75 6e 3f 6b d0 0f bf c1 fc 52 bf 2a 4f 5f be
       0.9314824 -0.56177396 -0.8241692 -0.21807542
000090 a0 9a a0 3e 97 35 8e 3f 53 20 cf 3e 3b db c0 3d
       0.3136797 1.1110104 0.4045435 0.09416815
0000a0 32 9d 0b bf 9e d4 c0 bd 8b f6 d3 be 7a 6d f5 bd
       -0.54536736 -0.094155535 -0.41399035 -0.119837716
0000b0 bd c1 81 3f 0d 4c b7 be a7 85 34 3f 68 18 07 be
       1.0137249 -0.3580021 0.7051644 -0.13192904
0000c0 30 40 93 bc f0 52 a4 bd fc 6b 1e bf bc a5 88 3e
       -0.017974943 -0.080236316 -0.6188352 0.26688945
0000d0 0c a2 e9 be af 5a 8b be 1f c5 c7 3e e6 a6 75 3e
       -0.45631444 -0.27217624 0.3901758 0.23989448
0000e0 a2 c8 38 bf e4 48 5c 3f 40 f8 b5 ba 3c 28 32 3e
       -0.7218114 0.8604872 -0.0013883188 0.1739816
0000f0 37 fc bd bd 13 a0 7b 3e 1c 40 ef 3d 41 cb 26 be
       -0.09276622 0.24572782 0.1168215 -0.16288473
000100 9f 9f 50 bf 2b 62 3e bd b4 0e c8 3d 39 45 7f bf
       -0.8149356 -0.04648034 0.097684294 -0.99715
000110 80 ae f2 be a6 e6 22 bf 6b 41 8a bd fa e9 48 3e
       -0.47398758 -0.6363319 -0.06750759 0.19620505
000120 df 47 3f 3e 77 8e a0 be d9 6d 15 3f 59 a7 24 3f
       0.1867976 -0.31358692 0.5837074 0.6431785
000130 11 98 03 bf 93 be f5 3e 18 c3 b2 3e 34 3c 38 3e
       -0.5140391 0.4799696 0.3491447 0.17991716
000140 96 82 89 be eb e1 b5 3d 7c 0f c4 3e d7 05 af be
       -0.26857442 0.08880981 0.38293064 -0.34184143
000150 41 29 82 bf 29 a2 63 bf b3 6b 03 3e 92 68 c4 3e
       -1.016884 -0.8891931 0.12834053 0.3836103
000160 6c b9 41 bf 3b 60 a4 bf 91 52 0f be cb 2d 8a 3e
       -0.75673556 -1.2841867 -0.1399634 0.26988062
000170 d1 77 a0 3f 12 ca dc be be 36 64 bf 33 ed 90 be
       1.2536565 -0.43122917 -0.8914603 -0.2830597
000180 4d 56 ca 3e a4 c7 8c 3f 87 9f 00 3e b4 17 a6 3e
       0.39518967 1.0998425 0.12560855 0.3243996
000190 20 ae a0 3f 45 4d da 3e de 9c 04 3f 18 ff 49 3f
       1.2553139 0.42637077 0.5180186 0.7890487
0001a0 74 78 09 3f 32 49 71 3e 30 a0 e9 3e 97 08 ea 3e
       0.5369942 0.23563078 0.45630026 0.4570968
0001b0 ed 43 c5 3e 0a 9d f8 3e 82 3d 5a 3f b3 16 14 bf
       0.38528386 0.4855731 0.85250103 -0.57847136
0001c0 77 20 81 bd fa 8a b5 3e 56 57 78 3e 15 2a 3a bf
       -0.0630502 0.35457593 0.24252066 -0.7272046
0001d0 88 e9 d0 be 38 d4 05 bf 33 c7 1b bf d2 c4 2d bf
       -0.4080317 -0.52276945 -0.6085083 -0.6787845
0001e0 0b 28 a5 be 04 5c 81 3d f2 e9 9f be 31 bb 8a bf
       -0.32257113 0.06316379 -0.31233174 -1.0838376
0001f0 79 c6 90 3e ab d5 97 bd 0b 05 22 3f 2e f7 24 3f
       0.28276423 -0.07413801 0.63288945 0.64439666
000200 74 93 ad 3d 11 0a 68 3e 68 95 04 bf 4c be 07 be
       0.0847539 0.2266009 -0.51790476 -0.13256186
000210 d0 ae a5 be 90 d8 cf 3e 9e fd 61 3e 74 a5 a8 3d
       -0.32359934 0.40594912 0.22069404 0.08234683
000220 e4 94 1b bf f1 55 8e 3f 0c d3 2b 3f 25 1b 00 bd
       -0.60774064 1.1119977 0.67118907 -0.031275887
000230 6c 96 03 bf a9 13 80 3b 0c 4f 88 3e ff b6 8e bd
       -0.514014 0.0039085937 0.26622808 -0.069684975
000240 68 fb 0b 3e 38 7d 3f 3f 6a 59 c9 bd c6 be 44 3f
       0.13670123 0.74800444 -0.098315075 0.768536
000250 ed 41 36 bd 0b 4d 75 bf 2f 5f 06 bf 78 79 27 3e
       -0.044496465 -0.95820683 -0.5248899 0.1635493
000260 72 88 62 be 3f 21 06 3f 63 b1 82 3e 88 19 f2 be
       -0.22122362 0.5239448 0.2552596 -0.47285104
000270 df b2 4b be 7e ce e7 be 6d b2 b6 3c 20 af a1 3e
       -0.19892453 -0.4527473 0.022301877 0.31578922
000280 43 48 89 bd 55 fe 8d bf f5 a1 90 be 21 33 2e 3f
       -0.06703236 -1.1093241 -0.28248563 0.68046767
000290 66 3f d8 bc 59 be 8d bd 4d 4c 21 bf e4 ea 34 3f
       -0.026397418 -0.069210716 -0.6300705 0.70670915
0002a0 a5 90 81 bc cd 30 a9 3e 3e 9d dd bf 52 13 a0 bd
       -0.015816042 0.33045045 -1.7313612 -0.07816185
0002b0 be cc 11 bf eb 10 00 bf 34 57 5d bf d1 2f 2b bf
       -0.56953037 -0.50025815 -0.86461186 -0.6686984
0002c0 1d 7e c7 3f 2d 89 1f bf f8 b1 d1 bd 6e 02 ab be
       1.5585362 -0.6231869 -0.10239023 -0.3340029
0002d0 c5 82 97 be 86 38 85 bf fd 33 86 bf 5b 52 e4 be
       -0.29591957 -1.0407875 -1.0484616 -0.44594082
0002e0 32 38 9b bf 46 c0 cb 3e 50 c4 e7 bf 27 f6 82 bf
       -1.2126524 0.3979513 -1.8106785 -1.023137
0002f0 18 a8 22 3e a2 86 66 3e 4a 4e 6e 3f cc 19 be 3b
       0.15884435 0.22512296 0.9308821 0.005801415
000300 40 e1 be 3f 10 40 49 be 14 00 e3 bf 37 e7 46 3f
       1.4912491 -0.19653344 -1.7734399 0.77696556
000310 63 07 33 be 4b 9d a6 be bd ac ad 3d 4b b1 75 3e
       -0.17483287 -0.3254188 0.08480213 0.23993413
000320 05 94 ed be 1d 83 dc 3d 4e f9 31 be 8d ce a9 bc
       -0.46401992 0.107671954 -0.17380258 -0.020728374
000330 c3 be a7 3f 18 14 de be 75 e5 63 bf 12 46 34 3e
       1.3105091 -0.43374705 -0.89022 0.17604855
000340 bd bf 32 be ad cf 96 be 72 2d dd 3e d3 cf 79 3e
       -0.17455955 -0.2945532 0.43198735 0.24395685
000350 8d fb 46 be fc bc f2 bd 16 9f eb 3e 9f a5 90 3f
       -0.19431897 -0.11852452 0.4601981 1.1300544
000360 14 1a 2a 3f b7 02 4c 3e d4 11 08 3e bb 37 d4 3e
       0.6644604 0.1992291 0.13288051 0.4144877
000370 4c 67 aa be 23 aa a3 3d be b4 a6 3d c0 9c 10 bf
       -0.33281934 0.079914354 0.081399426 -0.5648918
000380 26 64 ef 3e ae 22 d3 3c b9 f6 01 3f e5 37 4c bf
       0.46756095 0.025773373 0.50767094 -0.7977279
000390 6a 47 65 be f7 5e d8 3e e1 a2 51 3f 0a a2 9f 3e
       -0.22390524 0.42259952 0.8188916 0.31178313
0003a0 2f 43 6c 3c 02 1d 17 be 57 7d f6 3e 7d e4 27 3f
       0.014420315 -0.1475716 0.48142502 0.6558302
0003b0 2a a8 d2 bc 13 a0 a8 bd 19 b3 6f 3d 0c a4 9a 3d
       -0.025714952 -0.08233657 0.05852041 0.07550821
0003c0 32 41 14 bf 9e bd 95 bd 3d ed c6 bd ea d2 37 3f
       -0.5791198 -0.07311557 -0.09713218 0.71806204
0003d0 95 47 55 bf d9 0e 0c be 33 96 9f 3e ff 03 8c 3f
       -0.8331235 -0.13677539 0.3116928 1.093872
0003e0 02 5c 7b bc 54 4d 18 3e 02 8b d0 3e e8 a0 a8 3e
       -0.015341761 0.14873248 0.40731055 0.32935262
0003f0 bf e2 64 3d 6a cb 91 3c 5b 73 55 3f 56 f3 ad 3f
       0.055880304 0.01779719 0.83379143 1.3589885

toclass.bias f4 [18]
000000 08 59 12 be d6 13 fa 3d df 04 78 bd 92 2b 8b be
       -0.14291775 0.12210815 -0.06055152 -0.2718168
000010 d2 48 31 3e c1 b8 84 3e 1f e4 7f bd 65 36 f7 3c
       0.17312935 0.25922206 -0.062473413 0.030177305
000020 20 88 86 bd 09 26 1d be 23 de e8 be 9c 6e 06 bf
       -0.065689325 -0.1534654 -0.45481977 -0.52512527
000030 48 b6 c4 be 63 1c b4 3e f9 50 57 3e 2f 1e 8e be
       -0.3842032 0.35177907 0.21026982 -0.27757403
000040 66 5c 6a be 89 9e c4 be
       -0.2288681 -0.38402203
